<net name="Graph"><layers><layer id="0" name="/nncf_model_input_0" type="Nncf_Model_Input"><data metatype="input_noop" /><output><port id="0"><dim>32</dim><dim>128</dim></port></output></layer><layer id="1" name="/nncf_model_input_1" type="Nncf_Model_Input"><data metatype="input_noop" /><output><port id="0"><dim>32</dim><dim>128</dim></port></output></layer><layer id="2" name="/nncf_model_input_2" type="Nncf_Model_Input"><data metatype="input_noop" /><output><port id="0"><dim>32</dim><dim>128</dim></port></output></layer><layer id="3" name="BertForSequenceClassification/BertModel[bert]/__getitem___0" type="__Getitem__"><data metatype="GatherOp" /><input><port id="0"><dim>32</dim><dim>128</dim></port></input></layer><layer id="4" name="BertForSequenceClassification/BertModel[bert]/BertEmbeddings[embeddings]/NNCFEmbedding[word_embeddings]/embedding_0" type="Embedding"><data metatype="EmbeddingOp" /><input><port id="0"><dim>32</dim><dim>128</dim></port></input><output><port id="0"><dim>32</dim><dim>128</dim><dim>768</dim></port></output></layer><layer id="5" name="BertForSequenceClassification/BertModel[bert]/BertEmbeddings[embeddings]/NNCFEmbedding[token_type_embeddings]/embedding_0" type="Embedding"><data metatype="EmbeddingOp" /><input><port id="0"><dim>32</dim><dim>128</dim></port></input><output><port id="0"><dim>32</dim><dim>128</dim><dim>768</dim></port></output></layer><layer id="6" name="BertForSequenceClassification/BertModel[bert]/BertEmbeddings[embeddings]/__add___0" type="__Add__"><data metatype="AddOp" /><input><port id="0"><dim>32</dim><dim>128</dim><dim>768</dim></port><port id="1"><dim>32</dim><dim>128</dim><dim>768</dim></port></input><output><port id="0"><dim>32</dim><dim>128</dim><dim>768</dim></port></output></layer><layer id="7" name="BertForSequenceClassification/BertModel[bert]/BertEmbeddings[embeddings]/NNCFEmbedding[position_embeddings]/embedding_0" type="Embedding"><data metatype="EmbeddingOp" /><output><port id="0"><dim>1</dim><dim>128</dim><dim>768</dim></port></output></layer><layer id="8" name="BertForSequenceClassification/BertModel[bert]/BertEmbeddings[embeddings]/__iadd___0" type="__Iadd__"><data metatype="AddOp" /><input><port id="0"><dim>32</dim><dim>128</dim><dim>768</dim></port><port id="1"><dim>1</dim><dim>128</dim><dim>768</dim></port></input><output><port id="0"><dim>32</dim><dim>128</dim><dim>768</dim></port></output></layer><layer id="9" name="BertForSequenceClassification/BertModel[bert]/BertEmbeddings[embeddings]/NNCFLayerNorm[LayerNorm]/layer_norm_0" type="Layer_Norm"><data metatype="LayerNormOp" /><input><port id="0"><dim>32</dim><dim>128</dim><dim>768</dim></port></input><output><port id="0"><dim>32</dim><dim>128</dim><dim>768</dim></port></output></layer><layer id="10" name="BertForSequenceClassification/BertModel[bert]/BertEmbeddings[embeddings]/Dropout[dropout]/dropout_0" type="Dropout"><data metatype="DropoutOp" /><input><port id="0"><dim>32</dim><dim>128</dim><dim>768</dim></port></input><output><port id="0"><dim>32</dim><dim>128</dim><dim>768</dim></port><port id="0"><dim>32</dim><dim>128</dim><dim>768</dim></port><port id="0"><dim>32</dim><dim>128</dim><dim>768</dim></port><port id="0"><dim>32</dim><dim>128</dim><dim>768</dim></port></output></layer><layer id="11" name="BertForSequenceClassification/BertModel[bert]/BertEncoder[encoder]/ModuleList[layer]/BertLayer[0]/BertAttention[attention]/BertSelfAttention[self]/NNCFLinear[query]/ModuleDict[pre_ops]/UpdateWeight[0]/SymmetricQuantizer[op]/symmetric_quantize_0" type="Symmetric_Quantize"><data metatype="unknown" /><output><port id="0"><dim>768</dim><dim>768</dim></port></output></layer><layer id="12" name="BertForSequenceClassification/BertModel[bert]/BertEncoder[encoder]/ModuleList[layer]/BertLayer[0]/BertAttention[attention]/BertSelfAttention[self]/NNCFLinear[query]/SymmetricQuantizer/symmetric_quantize_0" type="Symmetric_Quantize"><data metatype="unknown" /><input><port id="0"><dim>32</dim><dim>128</dim><dim>768</dim></port></input><output><port id="0"><dim>32</dim><dim>128</dim><dim>768</dim></port></output></layer><layer id="13" name="BertForSequenceClassification/BertModel[bert]/BertEncoder[encoder]/ModuleList[layer]/BertLayer[0]/BertAttention[attention]/BertSelfAttention[self]/NNCFLinear[query]/linear_0" type="Linear"><data metatype="LinearOp" /><input><port id="0"><dim>32</dim><dim>128</dim><dim>768</dim></port><port id="1"><dim>768</dim><dim>768</dim></port></input><output><port id="0"><dim>32</dim><dim>128</dim><dim>768</dim></port></output></layer><layer id="14" name="BertForSequenceClassification/BertModel[bert]/BertEncoder[encoder]/ModuleList[layer]/BertLayer[0]/BertAttention[attention]/BertSelfAttention[self]/NNCFLinear[query]/SymmetricQuantizer/symmetric_quantize_1" type="Symmetric_Quantize"><data metatype="unknown" /><input><port id="0"><dim>32</dim><dim>128</dim><dim>768</dim></port></input><output><port id="0"><dim>32</dim><dim>128</dim><dim>768</dim></port></output></layer><layer id="15" name="BertForSequenceClassification/BertModel[bert]/BertEncoder[encoder]/ModuleList[layer]/BertLayer[0]/BertAttention[attention]/BertSelfAttention[self]/NNCFLinear[key]/ModuleDict[pre_ops]/UpdateWeight[0]/SymmetricQuantizer[op]/symmetric_quantize_0" type="Symmetric_Quantize"><data metatype="unknown" /><output><port id="0"><dim>768</dim><dim>768</dim></port></output></layer><layer id="16" name="BertForSequenceClassification/BertModel[bert]/BertEncoder[encoder]/ModuleList[layer]/BertLayer[0]/BertAttention[attention]/BertSelfAttention[self]/NNCFLinear[key]/SymmetricQuantizer/symmetric_quantize_0" type="Symmetric_Quantize"><data metatype="unknown" /><input><port id="0"><dim>32</dim><dim>128</dim><dim>768</dim></port></input><output><port id="0"><dim>32</dim><dim>128</dim><dim>768</dim></port></output></layer><layer id="17" name="BertForSequenceClassification/BertModel[bert]/BertEncoder[encoder]/ModuleList[layer]/BertLayer[0]/BertAttention[attention]/BertSelfAttention[self]/NNCFLinear[key]/linear_0" type="Linear"><data metatype="LinearOp" /><input><port id="0"><dim>32</dim><dim>128</dim><dim>768</dim></port><port id="1"><dim>768</dim><dim>768</dim></port></input><output><port id="0"><dim>32</dim><dim>128</dim><dim>768</dim></port></output></layer><layer id="18" name="BertForSequenceClassification/BertModel[bert]/BertEncoder[encoder]/ModuleList[layer]/BertLayer[0]/BertAttention[attention]/BertSelfAttention[self]/NNCFLinear[key]/SymmetricQuantizer/symmetric_quantize_1" type="Symmetric_Quantize"><data metatype="unknown" /><input><port id="0"><dim>32</dim><dim>128</dim><dim>768</dim></port></input><output><port id="0"><dim>32</dim><dim>128</dim><dim>768</dim></port></output></layer><layer id="19" name="BertForSequenceClassification/BertModel[bert]/BertEncoder[encoder]/ModuleList[layer]/BertLayer[0]/BertAttention[attention]/BertSelfAttention[self]/view_0" type="View"><data metatype="ReshapeOp" /><input><port id="0"><dim>32</dim><dim>128</dim><dim>768</dim></port></input><output><port id="0"><dim>32</dim><dim>128</dim><dim>12</dim><dim>64</dim></port></output></layer><layer id="20" name="BertForSequenceClassification/BertModel[bert]/BertEncoder[encoder]/ModuleList[layer]/BertLayer[0]/BertAttention[attention]/BertSelfAttention[self]/permute_0" type="Permute"><data metatype="TransposeOp" /><input><port id="0"><dim>32</dim><dim>128</dim><dim>12</dim><dim>64</dim></port></input><output><port id="0"><dim>32</dim><dim>12</dim><dim>128</dim><dim>64</dim></port></output></layer><layer id="21" name="BertForSequenceClassification/BertModel[bert]/BertEncoder[encoder]/ModuleList[layer]/BertLayer[0]/BertAttention[attention]/BertSelfAttention[self]/NNCFLinear[value]/ModuleDict[pre_ops]/UpdateWeight[0]/SymmetricQuantizer[op]/symmetric_quantize_0" type="Symmetric_Quantize"><data metatype="unknown" /><output><port id="0"><dim>768</dim><dim>768</dim></port></output></layer><layer id="22" name="BertForSequenceClassification/BertModel[bert]/BertEncoder[encoder]/ModuleList[layer]/BertLayer[0]/BertAttention[attention]/BertSelfAttention[self]/NNCFLinear[value]/SymmetricQuantizer/symmetric_quantize_0" type="Symmetric_Quantize"><data metatype="unknown" /><input><port id="0"><dim>32</dim><dim>128</dim><dim>768</dim></port></input><output><port id="0"><dim>32</dim><dim>128</dim><dim>768</dim></port></output></layer><layer id="23" name="BertForSequenceClassification/BertModel[bert]/BertEncoder[encoder]/ModuleList[layer]/BertLayer[0]/BertAttention[attention]/BertSelfAttention[self]/NNCFLinear[value]/linear_0" type="Linear"><data metatype="LinearOp" /><input><port id="0"><dim>32</dim><dim>128</dim><dim>768</dim></port><port id="1"><dim>768</dim><dim>768</dim></port></input><output><port id="0"><dim>32</dim><dim>128</dim><dim>768</dim></port></output></layer><layer id="24" name="BertForSequenceClassification/BertModel[bert]/BertEncoder[encoder]/ModuleList[layer]/BertLayer[0]/BertAttention[attention]/BertSelfAttention[self]/view_1" type="View"><data metatype="ReshapeOp" /><input><port id="0"><dim>32</dim><dim>128</dim><dim>768</dim></port></input><output><port id="0"><dim>32</dim><dim>128</dim><dim>12</dim><dim>64</dim></port></output></layer><layer id="25" name="BertForSequenceClassification/BertModel[bert]/BertEncoder[encoder]/ModuleList[layer]/BertLayer[0]/BertAttention[attention]/BertSelfAttention[self]/permute_1" type="Permute"><data metatype="TransposeOp" /><input><port id="0"><dim>32</dim><dim>128</dim><dim>12</dim><dim>64</dim></port></input><output><port id="0"><dim>32</dim><dim>12</dim><dim>128</dim><dim>64</dim></port></output></layer><layer id="26" name="BertForSequenceClassification/BertModel[bert]/BertEncoder[encoder]/ModuleList[layer]/BertLayer[0]/BertAttention[attention]/BertSelfAttention[self]/view_2" type="View"><data metatype="ReshapeOp" /><input><port id="0"><dim>32</dim><dim>128</dim><dim>768</dim></port></input><output><port id="0"><dim>32</dim><dim>128</dim><dim>12</dim><dim>64</dim></port></output></layer><layer id="27" name="BertForSequenceClassification/BertModel[bert]/BertEncoder[encoder]/ModuleList[layer]/BertLayer[0]/BertAttention[attention]/BertSelfAttention[self]/permute_2" type="Permute"><data metatype="TransposeOp" /><input><port id="0"><dim>32</dim><dim>128</dim><dim>12</dim><dim>64</dim></port></input><output><port id="0"><dim>32</dim><dim>12</dim><dim>128</dim><dim>64</dim></port></output></layer><layer id="28" name="BertForSequenceClassification/BertModel[bert]/BertEncoder[encoder]/ModuleList[layer]/BertLayer[0]/BertAttention[attention]/BertSelfAttention[self]/transpose_0" type="Transpose"><data metatype="TransposeOp" /><input><port id="0"><dim>32</dim><dim>12</dim><dim>128</dim><dim>64</dim></port></input><output><port id="0"><dim>32</dim><dim>12</dim><dim>64</dim><dim>128</dim></port></output></layer><layer id="29" name="BertForSequenceClassification/BertModel[bert]/BertEncoder[encoder]/ModuleList[layer]/BertLayer[0]/BertAttention[attention]/BertSelfAttention[self]/matmul_0" type="Matmul"><data metatype="MatMulOp" /><input><port id="0"><dim>32</dim><dim>12</dim><dim>128</dim><dim>64</dim></port><port id="1"><dim>32</dim><dim>12</dim><dim>64</dim><dim>128</dim></port></input><output><port id="0"><dim>32</dim><dim>12</dim><dim>128</dim><dim>128</dim></port></output></layer><layer id="30" name="BertForSequenceClassification/BertModel[bert]/BertEncoder[encoder]/ModuleList[layer]/BertLayer[0]/BertAttention[attention]/BertSelfAttention[self]/__truediv___0" type="__Truediv__"><data metatype="DivOp" /><input><port id="0"><dim>32</dim><dim>12</dim><dim>128</dim><dim>128</dim></port></input><output><port id="0"><dim>32</dim><dim>12</dim><dim>128</dim><dim>128</dim></port></output></layer><layer id="31" name="BertForSequenceClassification/BertModel[bert]/BertEncoder[encoder]/ModuleList[layer]/BertLayer[0]/BertAttention[attention]/BertSelfAttention[self]/__add___0" type="__Add__"><data metatype="AddOp" /><input><port id="0"><dim>32</dim><dim>12</dim><dim>128</dim><dim>128</dim></port></input><output><port id="0"><dim>32</dim><dim>12</dim><dim>128</dim><dim>128</dim></port></output></layer><layer id="32" name="BertForSequenceClassification/BertModel[bert]/BertEncoder[encoder]/ModuleList[layer]/BertLayer[0]/BertAttention[attention]/BertSelfAttention[self]/softmax_0" type="Softmax"><data metatype="SoftmaxOp" /><input><port id="0"><dim>32</dim><dim>12</dim><dim>128</dim><dim>128</dim></port></input><output><port id="0"><dim>32</dim><dim>12</dim><dim>128</dim><dim>128</dim></port></output></layer><layer id="33" name="BertForSequenceClassification/BertModel[bert]/BertEncoder[encoder]/ModuleList[layer]/BertLayer[0]/BertAttention[attention]/BertSelfAttention[self]/Dropout[dropout]/dropout_0" type="Dropout"><data metatype="DropoutOp" /><input><port id="0"><dim>32</dim><dim>12</dim><dim>128</dim><dim>128</dim></port></input><output><port id="0"><dim>32</dim><dim>12</dim><dim>128</dim><dim>128</dim></port></output></layer><layer id="34" name="BertForSequenceClassification/BertModel[bert]/BertEncoder[encoder]/ModuleList[layer]/BertLayer[0]/BertAttention[attention]/BertSelfAttention[self]/matmul_1" type="Matmul"><data metatype="MatMulOp" /><input><port id="0"><dim>32</dim><dim>12</dim><dim>128</dim><dim>128</dim></port><port id="1"><dim>32</dim><dim>12</dim><dim>128</dim><dim>64</dim></port></input><output><port id="0"><dim>32</dim><dim>12</dim><dim>128</dim><dim>64</dim></port></output></layer><layer id="35" name="BertForSequenceClassification/BertModel[bert]/BertEncoder[encoder]/ModuleList[layer]/BertLayer[0]/BertAttention[attention]/BertSelfAttention[self]/SymmetricQuantizer/symmetric_quantize_0" type="Symmetric_Quantize"><data metatype="unknown" /><input><port id="0"><dim>32</dim><dim>12</dim><dim>128</dim><dim>64</dim></port></input><output><port id="0"><dim>32</dim><dim>12</dim><dim>128</dim><dim>64</dim></port></output></layer><layer id="36" name="BertForSequenceClassification/BertModel[bert]/BertEncoder[encoder]/ModuleList[layer]/BertLayer[0]/BertAttention[attention]/BertSelfAttention[self]/permute_3" type="Permute"><data metatype="TransposeOp" /><input><port id="0"><dim>32</dim><dim>12</dim><dim>128</dim><dim>64</dim></port></input><output><port id="0"><dim>32</dim><dim>128</dim><dim>12</dim><dim>64</dim></port></output></layer><layer id="37" name="BertForSequenceClassification/BertModel[bert]/BertEncoder[encoder]/ModuleList[layer]/BertLayer[0]/BertAttention[attention]/BertSelfAttention[self]/contiguous_0" type="Contiguous"><data metatype="noop" /><input><port id="0"><dim>32</dim><dim>128</dim><dim>12</dim><dim>64</dim></port></input><output><port id="0"><dim>32</dim><dim>128</dim><dim>12</dim><dim>64</dim></port></output></layer><layer id="38" name="BertForSequenceClassification/BertModel[bert]/BertEncoder[encoder]/ModuleList[layer]/BertLayer[0]/BertAttention[attention]/BertSelfAttention[self]/view_3" type="View"><data metatype="ReshapeOp" /><input><port id="0"><dim>32</dim><dim>128</dim><dim>12</dim><dim>64</dim></port></input><output><port id="0"><dim>32</dim><dim>128</dim><dim>768</dim></port></output></layer><layer id="39" name="BertForSequenceClassification/BertModel[bert]/BertEncoder[encoder]/ModuleList[layer]/BertLayer[0]/BertAttention[attention]/BertSelfOutput[output]/NNCFLinear[dense]/ModuleDict[pre_ops]/UpdateWeight[0]/SymmetricQuantizer[op]/symmetric_quantize_0" type="Symmetric_Quantize"><data metatype="unknown" /><output><port id="0"><dim>768</dim><dim>768</dim></port></output></layer><layer id="40" name="BertForSequenceClassification/BertModel[bert]/BertEncoder[encoder]/ModuleList[layer]/BertLayer[0]/BertAttention[attention]/BertSelfOutput[output]/NNCFLinear[dense]/linear_0" type="Linear"><data metatype="LinearOp" /><input><port id="0"><dim>32</dim><dim>128</dim><dim>768</dim></port><port id="1"><dim>768</dim><dim>768</dim></port></input><output><port id="0"><dim>32</dim><dim>128</dim><dim>768</dim></port></output></layer><layer id="41" name="BertForSequenceClassification/BertModel[bert]/BertEncoder[encoder]/ModuleList[layer]/BertLayer[0]/BertAttention[attention]/BertSelfOutput[output]/Dropout[dropout]/dropout_0" type="Dropout"><data metatype="DropoutOp" /><input><port id="0"><dim>32</dim><dim>128</dim><dim>768</dim></port></input><output><port id="0"><dim>32</dim><dim>128</dim><dim>768</dim></port></output></layer><layer id="42" name="BertForSequenceClassification/BertModel[bert]/BertEncoder[encoder]/ModuleList[layer]/BertLayer[0]/BertAttention[attention]/BertSelfOutput[output]/__add___0" type="__Add__"><data metatype="AddOp" /><input><port id="0"><dim>32</dim><dim>128</dim><dim>768</dim></port><port id="1"><dim>32</dim><dim>128</dim><dim>768</dim></port></input><output><port id="0"><dim>32</dim><dim>128</dim><dim>768</dim></port></output></layer><layer id="43" name="BertForSequenceClassification/BertModel[bert]/BertEncoder[encoder]/ModuleList[layer]/BertLayer[0]/BertAttention[attention]/BertSelfOutput[output]/NNCFLayerNorm[LayerNorm]/layer_norm_0" type="Layer_Norm"><data metatype="LayerNormOp" /><input><port id="0"><dim>32</dim><dim>128</dim><dim>768</dim></port></input><output><port id="0"><dim>32</dim><dim>128</dim><dim>768</dim></port><port id="0"><dim>32</dim><dim>128</dim><dim>768</dim></port></output></layer><layer id="44" name="BertForSequenceClassification/BertModel[bert]/BertEncoder[encoder]/ModuleList[layer]/BertLayer[0]/BertIntermediate[intermediate]/NNCFLinear[dense]/ModuleDict[pre_ops]/UpdateWeight[0]/SymmetricQuantizer[op]/symmetric_quantize_0" type="Symmetric_Quantize"><data metatype="unknown" /><output><port id="0"><dim>3072</dim><dim>768</dim></port></output></layer><layer id="45" name="BertForSequenceClassification/BertModel[bert]/BertEncoder[encoder]/ModuleList[layer]/BertLayer[0]/BertIntermediate[intermediate]/NNCFLinear[dense]/SymmetricQuantizer/symmetric_quantize_0" type="Symmetric_Quantize"><data metatype="unknown" /><input><port id="0"><dim>32</dim><dim>128</dim><dim>768</dim></port></input><output><port id="0"><dim>32</dim><dim>128</dim><dim>768</dim></port></output></layer><layer id="46" name="BertForSequenceClassification/BertModel[bert]/BertEncoder[encoder]/ModuleList[layer]/BertLayer[0]/BertIntermediate[intermediate]/NNCFLinear[dense]/linear_0" type="Linear"><data metatype="LinearOp" /><input><port id="0"><dim>32</dim><dim>128</dim><dim>768</dim></port><port id="1"><dim>3072</dim><dim>768</dim></port></input><output><port id="0"><dim>32</dim><dim>128</dim><dim>3072</dim></port></output></layer><layer id="47" name="BertForSequenceClassification/BertModel[bert]/BertEncoder[encoder]/ModuleList[layer]/BertLayer[0]/BertIntermediate[intermediate]/GELUActivation[intermediate_act_fn]/gelu_0" type="Gelu"><data metatype="GeluOp" /><input><port id="0"><dim>32</dim><dim>128</dim><dim>3072</dim></port></input><output><port id="0"><dim>32</dim><dim>128</dim><dim>3072</dim></port></output></layer><layer id="48" name="BertForSequenceClassification/BertModel[bert]/BertEncoder[encoder]/ModuleList[layer]/BertLayer[0]/BertIntermediate[intermediate]/GELUActivation[intermediate_act_fn]/SymmetricQuantizer/symmetric_quantize_0" type="Symmetric_Quantize"><data metatype="unknown" /><input><port id="0"><dim>32</dim><dim>128</dim><dim>3072</dim></port></input><output><port id="0"><dim>32</dim><dim>128</dim><dim>3072</dim></port></output></layer><layer id="49" name="BertForSequenceClassification/BertModel[bert]/BertEncoder[encoder]/ModuleList[layer]/BertLayer[0]/BertOutput[output]/NNCFLinear[dense]/ModuleDict[pre_ops]/UpdateWeight[0]/SymmetricQuantizer[op]/symmetric_quantize_0" type="Symmetric_Quantize"><data metatype="unknown" /><output><port id="0"><dim>768</dim><dim>3072</dim></port></output></layer><layer id="50" name="BertForSequenceClassification/BertModel[bert]/BertEncoder[encoder]/ModuleList[layer]/BertLayer[0]/BertOutput[output]/NNCFLinear[dense]/linear_0" type="Linear"><data metatype="LinearOp" /><input><port id="0"><dim>32</dim><dim>128</dim><dim>3072</dim></port><port id="1"><dim>768</dim><dim>3072</dim></port></input><output><port id="0"><dim>32</dim><dim>128</dim><dim>768</dim></port></output></layer><layer id="51" name="BertForSequenceClassification/BertModel[bert]/BertEncoder[encoder]/ModuleList[layer]/BertLayer[0]/BertOutput[output]/Dropout[dropout]/dropout_0" type="Dropout"><data metatype="DropoutOp" /><input><port id="0"><dim>32</dim><dim>128</dim><dim>768</dim></port></input><output><port id="0"><dim>32</dim><dim>128</dim><dim>768</dim></port></output></layer><layer id="52" name="BertForSequenceClassification/BertModel[bert]/BertEncoder[encoder]/ModuleList[layer]/BertLayer[0]/BertOutput[output]/__add___0" type="__Add__"><data metatype="AddOp" /><input><port id="0"><dim>32</dim><dim>128</dim><dim>768</dim></port><port id="1"><dim>32</dim><dim>128</dim><dim>768</dim></port></input><output><port id="0"><dim>32</dim><dim>128</dim><dim>768</dim></port></output></layer><layer id="53" name="BertForSequenceClassification/BertModel[bert]/BertEncoder[encoder]/ModuleList[layer]/BertLayer[0]/BertOutput[output]/NNCFLayerNorm[LayerNorm]/layer_norm_0" type="Layer_Norm"><data metatype="LayerNormOp" /><input><port id="0"><dim>32</dim><dim>128</dim><dim>768</dim></port></input><output><port id="0"><dim>32</dim><dim>128</dim><dim>768</dim></port><port id="0"><dim>32</dim><dim>128</dim><dim>768</dim></port><port id="0"><dim>32</dim><dim>128</dim><dim>768</dim></port><port id="0"><dim>32</dim><dim>128</dim><dim>768</dim></port></output></layer><layer id="54" name="BertForSequenceClassification/BertModel[bert]/BertEncoder[encoder]/ModuleList[layer]/BertLayer[1]/BertAttention[attention]/BertSelfAttention[self]/NNCFLinear[query]/ModuleDict[pre_ops]/UpdateWeight[0]/SymmetricQuantizer[op]/symmetric_quantize_0" type="Symmetric_Quantize"><data metatype="unknown" /><output><port id="0"><dim>768</dim><dim>768</dim></port></output></layer><layer id="55" name="BertForSequenceClassification/BertModel[bert]/BertEncoder[encoder]/ModuleList[layer]/BertLayer[1]/BertAttention[attention]/BertSelfAttention[self]/NNCFLinear[query]/SymmetricQuantizer/symmetric_quantize_0" type="Symmetric_Quantize"><data metatype="unknown" /><input><port id="0"><dim>32</dim><dim>128</dim><dim>768</dim></port></input><output><port id="0"><dim>32</dim><dim>128</dim><dim>768</dim></port></output></layer><layer id="56" name="BertForSequenceClassification/BertModel[bert]/BertEncoder[encoder]/ModuleList[layer]/BertLayer[1]/BertAttention[attention]/BertSelfAttention[self]/NNCFLinear[query]/linear_0" type="Linear"><data metatype="LinearOp" /><input><port id="0"><dim>32</dim><dim>128</dim><dim>768</dim></port><port id="1"><dim>768</dim><dim>768</dim></port></input><output><port id="0"><dim>32</dim><dim>128</dim><dim>768</dim></port></output></layer><layer id="57" name="BertForSequenceClassification/BertModel[bert]/BertEncoder[encoder]/ModuleList[layer]/BertLayer[1]/BertAttention[attention]/BertSelfAttention[self]/NNCFLinear[query]/SymmetricQuantizer/symmetric_quantize_1" type="Symmetric_Quantize"><data metatype="unknown" /><input><port id="0"><dim>32</dim><dim>128</dim><dim>768</dim></port></input><output><port id="0"><dim>32</dim><dim>128</dim><dim>768</dim></port></output></layer><layer id="58" name="BertForSequenceClassification/BertModel[bert]/BertEncoder[encoder]/ModuleList[layer]/BertLayer[1]/BertAttention[attention]/BertSelfAttention[self]/NNCFLinear[key]/ModuleDict[pre_ops]/UpdateWeight[0]/SymmetricQuantizer[op]/symmetric_quantize_0" type="Symmetric_Quantize"><data metatype="unknown" /><output><port id="0"><dim>768</dim><dim>768</dim></port></output></layer><layer id="59" name="BertForSequenceClassification/BertModel[bert]/BertEncoder[encoder]/ModuleList[layer]/BertLayer[1]/BertAttention[attention]/BertSelfAttention[self]/NNCFLinear[key]/SymmetricQuantizer/symmetric_quantize_0" type="Symmetric_Quantize"><data metatype="unknown" /><input><port id="0"><dim>32</dim><dim>128</dim><dim>768</dim></port></input><output><port id="0"><dim>32</dim><dim>128</dim><dim>768</dim></port></output></layer><layer id="60" name="BertForSequenceClassification/BertModel[bert]/BertEncoder[encoder]/ModuleList[layer]/BertLayer[1]/BertAttention[attention]/BertSelfAttention[self]/NNCFLinear[key]/linear_0" type="Linear"><data metatype="LinearOp" /><input><port id="0"><dim>32</dim><dim>128</dim><dim>768</dim></port><port id="1"><dim>768</dim><dim>768</dim></port></input><output><port id="0"><dim>32</dim><dim>128</dim><dim>768</dim></port></output></layer><layer id="61" name="BertForSequenceClassification/BertModel[bert]/BertEncoder[encoder]/ModuleList[layer]/BertLayer[1]/BertAttention[attention]/BertSelfAttention[self]/NNCFLinear[key]/SymmetricQuantizer/symmetric_quantize_1" type="Symmetric_Quantize"><data metatype="unknown" /><input><port id="0"><dim>32</dim><dim>128</dim><dim>768</dim></port></input><output><port id="0"><dim>32</dim><dim>128</dim><dim>768</dim></port></output></layer><layer id="62" name="BertForSequenceClassification/BertModel[bert]/BertEncoder[encoder]/ModuleList[layer]/BertLayer[1]/BertAttention[attention]/BertSelfAttention[self]/view_0" type="View"><data metatype="ReshapeOp" /><input><port id="0"><dim>32</dim><dim>128</dim><dim>768</dim></port></input><output><port id="0"><dim>32</dim><dim>128</dim><dim>12</dim><dim>64</dim></port></output></layer><layer id="63" name="BertForSequenceClassification/BertModel[bert]/BertEncoder[encoder]/ModuleList[layer]/BertLayer[1]/BertAttention[attention]/BertSelfAttention[self]/permute_0" type="Permute"><data metatype="TransposeOp" /><input><port id="0"><dim>32</dim><dim>128</dim><dim>12</dim><dim>64</dim></port></input><output><port id="0"><dim>32</dim><dim>12</dim><dim>128</dim><dim>64</dim></port></output></layer><layer id="64" name="BertForSequenceClassification/BertModel[bert]/BertEncoder[encoder]/ModuleList[layer]/BertLayer[1]/BertAttention[attention]/BertSelfAttention[self]/NNCFLinear[value]/ModuleDict[pre_ops]/UpdateWeight[0]/SymmetricQuantizer[op]/symmetric_quantize_0" type="Symmetric_Quantize"><data metatype="unknown" /><output><port id="0"><dim>768</dim><dim>768</dim></port></output></layer><layer id="65" name="BertForSequenceClassification/BertModel[bert]/BertEncoder[encoder]/ModuleList[layer]/BertLayer[1]/BertAttention[attention]/BertSelfAttention[self]/NNCFLinear[value]/SymmetricQuantizer/symmetric_quantize_0" type="Symmetric_Quantize"><data metatype="unknown" /><input><port id="0"><dim>32</dim><dim>128</dim><dim>768</dim></port></input><output><port id="0"><dim>32</dim><dim>128</dim><dim>768</dim></port></output></layer><layer id="66" name="BertForSequenceClassification/BertModel[bert]/BertEncoder[encoder]/ModuleList[layer]/BertLayer[1]/BertAttention[attention]/BertSelfAttention[self]/NNCFLinear[value]/linear_0" type="Linear"><data metatype="LinearOp" /><input><port id="0"><dim>32</dim><dim>128</dim><dim>768</dim></port><port id="1"><dim>768</dim><dim>768</dim></port></input><output><port id="0"><dim>32</dim><dim>128</dim><dim>768</dim></port></output></layer><layer id="67" name="BertForSequenceClassification/BertModel[bert]/BertEncoder[encoder]/ModuleList[layer]/BertLayer[1]/BertAttention[attention]/BertSelfAttention[self]/view_1" type="View"><data metatype="ReshapeOp" /><input><port id="0"><dim>32</dim><dim>128</dim><dim>768</dim></port></input><output><port id="0"><dim>32</dim><dim>128</dim><dim>12</dim><dim>64</dim></port></output></layer><layer id="68" name="BertForSequenceClassification/BertModel[bert]/BertEncoder[encoder]/ModuleList[layer]/BertLayer[1]/BertAttention[attention]/BertSelfAttention[self]/permute_1" type="Permute"><data metatype="TransposeOp" /><input><port id="0"><dim>32</dim><dim>128</dim><dim>12</dim><dim>64</dim></port></input><output><port id="0"><dim>32</dim><dim>12</dim><dim>128</dim><dim>64</dim></port></output></layer><layer id="69" name="BertForSequenceClassification/BertModel[bert]/BertEncoder[encoder]/ModuleList[layer]/BertLayer[1]/BertAttention[attention]/BertSelfAttention[self]/view_2" type="View"><data metatype="ReshapeOp" /><input><port id="0"><dim>32</dim><dim>128</dim><dim>768</dim></port></input><output><port id="0"><dim>32</dim><dim>128</dim><dim>12</dim><dim>64</dim></port></output></layer><layer id="70" name="BertForSequenceClassification/BertModel[bert]/BertEncoder[encoder]/ModuleList[layer]/BertLayer[1]/BertAttention[attention]/BertSelfAttention[self]/permute_2" type="Permute"><data metatype="TransposeOp" /><input><port id="0"><dim>32</dim><dim>128</dim><dim>12</dim><dim>64</dim></port></input><output><port id="0"><dim>32</dim><dim>12</dim><dim>128</dim><dim>64</dim></port></output></layer><layer id="71" name="BertForSequenceClassification/BertModel[bert]/BertEncoder[encoder]/ModuleList[layer]/BertLayer[1]/BertAttention[attention]/BertSelfAttention[self]/transpose_0" type="Transpose"><data metatype="TransposeOp" /><input><port id="0"><dim>32</dim><dim>12</dim><dim>128</dim><dim>64</dim></port></input><output><port id="0"><dim>32</dim><dim>12</dim><dim>64</dim><dim>128</dim></port></output></layer><layer id="72" name="BertForSequenceClassification/BertModel[bert]/BertEncoder[encoder]/ModuleList[layer]/BertLayer[1]/BertAttention[attention]/BertSelfAttention[self]/matmul_0" type="Matmul"><data metatype="MatMulOp" /><input><port id="0"><dim>32</dim><dim>12</dim><dim>128</dim><dim>64</dim></port><port id="1"><dim>32</dim><dim>12</dim><dim>64</dim><dim>128</dim></port></input><output><port id="0"><dim>32</dim><dim>12</dim><dim>128</dim><dim>128</dim></port></output></layer><layer id="73" name="BertForSequenceClassification/BertModel[bert]/BertEncoder[encoder]/ModuleList[layer]/BertLayer[1]/BertAttention[attention]/BertSelfAttention[self]/__truediv___0" type="__Truediv__"><data metatype="DivOp" /><input><port id="0"><dim>32</dim><dim>12</dim><dim>128</dim><dim>128</dim></port></input><output><port id="0"><dim>32</dim><dim>12</dim><dim>128</dim><dim>128</dim></port></output></layer><layer id="74" name="BertForSequenceClassification/BertModel[bert]/BertEncoder[encoder]/ModuleList[layer]/BertLayer[1]/BertAttention[attention]/BertSelfAttention[self]/__add___0" type="__Add__"><data metatype="AddOp" /><input><port id="0"><dim>32</dim><dim>12</dim><dim>128</dim><dim>128</dim></port></input><output><port id="0"><dim>32</dim><dim>12</dim><dim>128</dim><dim>128</dim></port></output></layer><layer id="75" name="BertForSequenceClassification/BertModel[bert]/BertEncoder[encoder]/ModuleList[layer]/BertLayer[1]/BertAttention[attention]/BertSelfAttention[self]/softmax_0" type="Softmax"><data metatype="SoftmaxOp" /><input><port id="0"><dim>32</dim><dim>12</dim><dim>128</dim><dim>128</dim></port></input><output><port id="0"><dim>32</dim><dim>12</dim><dim>128</dim><dim>128</dim></port></output></layer><layer id="76" name="BertForSequenceClassification/BertModel[bert]/BertEncoder[encoder]/ModuleList[layer]/BertLayer[1]/BertAttention[attention]/BertSelfAttention[self]/Dropout[dropout]/dropout_0" type="Dropout"><data metatype="DropoutOp" /><input><port id="0"><dim>32</dim><dim>12</dim><dim>128</dim><dim>128</dim></port></input><output><port id="0"><dim>32</dim><dim>12</dim><dim>128</dim><dim>128</dim></port></output></layer><layer id="77" name="BertForSequenceClassification/BertModel[bert]/BertEncoder[encoder]/ModuleList[layer]/BertLayer[1]/BertAttention[attention]/BertSelfAttention[self]/matmul_1" type="Matmul"><data metatype="MatMulOp" /><input><port id="0"><dim>32</dim><dim>12</dim><dim>128</dim><dim>128</dim></port><port id="1"><dim>32</dim><dim>12</dim><dim>128</dim><dim>64</dim></port></input><output><port id="0"><dim>32</dim><dim>12</dim><dim>128</dim><dim>64</dim></port></output></layer><layer id="78" name="BertForSequenceClassification/BertModel[bert]/BertEncoder[encoder]/ModuleList[layer]/BertLayer[1]/BertAttention[attention]/BertSelfAttention[self]/SymmetricQuantizer/symmetric_quantize_0" type="Symmetric_Quantize"><data metatype="unknown" /><input><port id="0"><dim>32</dim><dim>12</dim><dim>128</dim><dim>64</dim></port></input><output><port id="0"><dim>32</dim><dim>12</dim><dim>128</dim><dim>64</dim></port></output></layer><layer id="79" name="BertForSequenceClassification/BertModel[bert]/BertEncoder[encoder]/ModuleList[layer]/BertLayer[1]/BertAttention[attention]/BertSelfAttention[self]/permute_3" type="Permute"><data metatype="TransposeOp" /><input><port id="0"><dim>32</dim><dim>12</dim><dim>128</dim><dim>64</dim></port></input><output><port id="0"><dim>32</dim><dim>128</dim><dim>12</dim><dim>64</dim></port></output></layer><layer id="80" name="BertForSequenceClassification/BertModel[bert]/BertEncoder[encoder]/ModuleList[layer]/BertLayer[1]/BertAttention[attention]/BertSelfAttention[self]/contiguous_0" type="Contiguous"><data metatype="noop" /><input><port id="0"><dim>32</dim><dim>128</dim><dim>12</dim><dim>64</dim></port></input><output><port id="0"><dim>32</dim><dim>128</dim><dim>12</dim><dim>64</dim></port></output></layer><layer id="81" name="BertForSequenceClassification/BertModel[bert]/BertEncoder[encoder]/ModuleList[layer]/BertLayer[1]/BertAttention[attention]/BertSelfAttention[self]/view_3" type="View"><data metatype="ReshapeOp" /><input><port id="0"><dim>32</dim><dim>128</dim><dim>12</dim><dim>64</dim></port></input><output><port id="0"><dim>32</dim><dim>128</dim><dim>768</dim></port></output></layer><layer id="82" name="BertForSequenceClassification/BertModel[bert]/BertEncoder[encoder]/ModuleList[layer]/BertLayer[1]/BertAttention[attention]/BertSelfOutput[output]/NNCFLinear[dense]/ModuleDict[pre_ops]/UpdateWeight[0]/SymmetricQuantizer[op]/symmetric_quantize_0" type="Symmetric_Quantize"><data metatype="unknown" /><output><port id="0"><dim>768</dim><dim>768</dim></port></output></layer><layer id="83" name="BertForSequenceClassification/BertModel[bert]/BertEncoder[encoder]/ModuleList[layer]/BertLayer[1]/BertAttention[attention]/BertSelfOutput[output]/NNCFLinear[dense]/linear_0" type="Linear"><data metatype="LinearOp" /><input><port id="0"><dim>32</dim><dim>128</dim><dim>768</dim></port><port id="1"><dim>768</dim><dim>768</dim></port></input><output><port id="0"><dim>32</dim><dim>128</dim><dim>768</dim></port></output></layer><layer id="84" name="BertForSequenceClassification/BertModel[bert]/BertEncoder[encoder]/ModuleList[layer]/BertLayer[1]/BertAttention[attention]/BertSelfOutput[output]/Dropout[dropout]/dropout_0" type="Dropout"><data metatype="DropoutOp" /><input><port id="0"><dim>32</dim><dim>128</dim><dim>768</dim></port></input><output><port id="0"><dim>32</dim><dim>128</dim><dim>768</dim></port></output></layer><layer id="85" name="BertForSequenceClassification/BertModel[bert]/BertEncoder[encoder]/ModuleList[layer]/BertLayer[1]/BertAttention[attention]/BertSelfOutput[output]/__add___0" type="__Add__"><data metatype="AddOp" /><input><port id="0"><dim>32</dim><dim>128</dim><dim>768</dim></port><port id="1"><dim>32</dim><dim>128</dim><dim>768</dim></port></input><output><port id="0"><dim>32</dim><dim>128</dim><dim>768</dim></port></output></layer><layer id="86" name="BertForSequenceClassification/BertModel[bert]/BertEncoder[encoder]/ModuleList[layer]/BertLayer[1]/BertAttention[attention]/BertSelfOutput[output]/NNCFLayerNorm[LayerNorm]/layer_norm_0" type="Layer_Norm"><data metatype="LayerNormOp" /><input><port id="0"><dim>32</dim><dim>128</dim><dim>768</dim></port></input><output><port id="0"><dim>32</dim><dim>128</dim><dim>768</dim></port><port id="0"><dim>32</dim><dim>128</dim><dim>768</dim></port></output></layer><layer id="87" name="BertForSequenceClassification/BertModel[bert]/BertEncoder[encoder]/ModuleList[layer]/BertLayer[1]/BertIntermediate[intermediate]/NNCFLinear[dense]/ModuleDict[pre_ops]/UpdateWeight[0]/SymmetricQuantizer[op]/symmetric_quantize_0" type="Symmetric_Quantize"><data metatype="unknown" /><output><port id="0"><dim>3072</dim><dim>768</dim></port></output></layer><layer id="88" name="BertForSequenceClassification/BertModel[bert]/BertEncoder[encoder]/ModuleList[layer]/BertLayer[1]/BertIntermediate[intermediate]/NNCFLinear[dense]/SymmetricQuantizer/symmetric_quantize_0" type="Symmetric_Quantize"><data metatype="unknown" /><input><port id="0"><dim>32</dim><dim>128</dim><dim>768</dim></port></input><output><port id="0"><dim>32</dim><dim>128</dim><dim>768</dim></port></output></layer><layer id="89" name="BertForSequenceClassification/BertModel[bert]/BertEncoder[encoder]/ModuleList[layer]/BertLayer[1]/BertIntermediate[intermediate]/NNCFLinear[dense]/linear_0" type="Linear"><data metatype="LinearOp" /><input><port id="0"><dim>32</dim><dim>128</dim><dim>768</dim></port><port id="1"><dim>3072</dim><dim>768</dim></port></input><output><port id="0"><dim>32</dim><dim>128</dim><dim>3072</dim></port></output></layer><layer id="90" name="BertForSequenceClassification/BertModel[bert]/BertEncoder[encoder]/ModuleList[layer]/BertLayer[1]/BertIntermediate[intermediate]/GELUActivation[intermediate_act_fn]/gelu_0" type="Gelu"><data metatype="GeluOp" /><input><port id="0"><dim>32</dim><dim>128</dim><dim>3072</dim></port></input><output><port id="0"><dim>32</dim><dim>128</dim><dim>3072</dim></port></output></layer><layer id="91" name="BertForSequenceClassification/BertModel[bert]/BertEncoder[encoder]/ModuleList[layer]/BertLayer[1]/BertIntermediate[intermediate]/GELUActivation[intermediate_act_fn]/SymmetricQuantizer/symmetric_quantize_0" type="Symmetric_Quantize"><data metatype="unknown" /><input><port id="0"><dim>32</dim><dim>128</dim><dim>3072</dim></port></input><output><port id="0"><dim>32</dim><dim>128</dim><dim>3072</dim></port></output></layer><layer id="92" name="BertForSequenceClassification/BertModel[bert]/BertEncoder[encoder]/ModuleList[layer]/BertLayer[1]/BertOutput[output]/NNCFLinear[dense]/ModuleDict[pre_ops]/UpdateWeight[0]/SymmetricQuantizer[op]/symmetric_quantize_0" type="Symmetric_Quantize"><data metatype="unknown" /><output><port id="0"><dim>768</dim><dim>3072</dim></port></output></layer><layer id="93" name="BertForSequenceClassification/BertModel[bert]/BertEncoder[encoder]/ModuleList[layer]/BertLayer[1]/BertOutput[output]/NNCFLinear[dense]/linear_0" type="Linear"><data metatype="LinearOp" /><input><port id="0"><dim>32</dim><dim>128</dim><dim>3072</dim></port><port id="1"><dim>768</dim><dim>3072</dim></port></input><output><port id="0"><dim>32</dim><dim>128</dim><dim>768</dim></port></output></layer><layer id="94" name="BertForSequenceClassification/BertModel[bert]/BertEncoder[encoder]/ModuleList[layer]/BertLayer[1]/BertOutput[output]/Dropout[dropout]/dropout_0" type="Dropout"><data metatype="DropoutOp" /><input><port id="0"><dim>32</dim><dim>128</dim><dim>768</dim></port></input><output><port id="0"><dim>32</dim><dim>128</dim><dim>768</dim></port></output></layer><layer id="95" name="BertForSequenceClassification/BertModel[bert]/BertEncoder[encoder]/ModuleList[layer]/BertLayer[1]/BertOutput[output]/__add___0" type="__Add__"><data metatype="AddOp" /><input><port id="0"><dim>32</dim><dim>128</dim><dim>768</dim></port><port id="1"><dim>32</dim><dim>128</dim><dim>768</dim></port></input><output><port id="0"><dim>32</dim><dim>128</dim><dim>768</dim></port></output></layer><layer id="96" name="BertForSequenceClassification/BertModel[bert]/BertEncoder[encoder]/ModuleList[layer]/BertLayer[1]/BertOutput[output]/NNCFLayerNorm[LayerNorm]/layer_norm_0" type="Layer_Norm"><data metatype="LayerNormOp" /><input><port id="0"><dim>32</dim><dim>128</dim><dim>768</dim></port></input><output><port id="0"><dim>32</dim><dim>128</dim><dim>768</dim></port><port id="0"><dim>32</dim><dim>128</dim><dim>768</dim></port><port id="0"><dim>32</dim><dim>128</dim><dim>768</dim></port><port id="0"><dim>32</dim><dim>128</dim><dim>768</dim></port></output></layer><layer id="97" name="BertForSequenceClassification/BertModel[bert]/BertEncoder[encoder]/ModuleList[layer]/BertLayer[2]/BertAttention[attention]/BertSelfAttention[self]/NNCFLinear[query]/ModuleDict[pre_ops]/UpdateWeight[0]/SymmetricQuantizer[op]/symmetric_quantize_0" type="Symmetric_Quantize"><data metatype="unknown" /><output><port id="0"><dim>768</dim><dim>768</dim></port></output></layer><layer id="98" name="BertForSequenceClassification/BertModel[bert]/BertEncoder[encoder]/ModuleList[layer]/BertLayer[2]/BertAttention[attention]/BertSelfAttention[self]/NNCFLinear[query]/SymmetricQuantizer/symmetric_quantize_0" type="Symmetric_Quantize"><data metatype="unknown" /><input><port id="0"><dim>32</dim><dim>128</dim><dim>768</dim></port></input><output><port id="0"><dim>32</dim><dim>128</dim><dim>768</dim></port></output></layer><layer id="99" name="BertForSequenceClassification/BertModel[bert]/BertEncoder[encoder]/ModuleList[layer]/BertLayer[2]/BertAttention[attention]/BertSelfAttention[self]/NNCFLinear[query]/linear_0" type="Linear"><data metatype="LinearOp" /><input><port id="0"><dim>32</dim><dim>128</dim><dim>768</dim></port><port id="1"><dim>768</dim><dim>768</dim></port></input><output><port id="0"><dim>32</dim><dim>128</dim><dim>768</dim></port></output></layer><layer id="100" name="BertForSequenceClassification/BertModel[bert]/BertEncoder[encoder]/ModuleList[layer]/BertLayer[2]/BertAttention[attention]/BertSelfAttention[self]/NNCFLinear[query]/SymmetricQuantizer/symmetric_quantize_1" type="Symmetric_Quantize"><data metatype="unknown" /><input><port id="0"><dim>32</dim><dim>128</dim><dim>768</dim></port></input><output><port id="0"><dim>32</dim><dim>128</dim><dim>768</dim></port></output></layer><layer id="101" name="BertForSequenceClassification/BertModel[bert]/BertEncoder[encoder]/ModuleList[layer]/BertLayer[2]/BertAttention[attention]/BertSelfAttention[self]/NNCFLinear[key]/ModuleDict[pre_ops]/UpdateWeight[0]/SymmetricQuantizer[op]/symmetric_quantize_0" type="Symmetric_Quantize"><data metatype="unknown" /><output><port id="0"><dim>768</dim><dim>768</dim></port></output></layer><layer id="102" name="BertForSequenceClassification/BertModel[bert]/BertEncoder[encoder]/ModuleList[layer]/BertLayer[2]/BertAttention[attention]/BertSelfAttention[self]/NNCFLinear[key]/SymmetricQuantizer/symmetric_quantize_0" type="Symmetric_Quantize"><data metatype="unknown" /><input><port id="0"><dim>32</dim><dim>128</dim><dim>768</dim></port></input><output><port id="0"><dim>32</dim><dim>128</dim><dim>768</dim></port></output></layer><layer id="103" name="BertForSequenceClassification/BertModel[bert]/BertEncoder[encoder]/ModuleList[layer]/BertLayer[2]/BertAttention[attention]/BertSelfAttention[self]/NNCFLinear[key]/linear_0" type="Linear"><data metatype="LinearOp" /><input><port id="0"><dim>32</dim><dim>128</dim><dim>768</dim></port><port id="1"><dim>768</dim><dim>768</dim></port></input><output><port id="0"><dim>32</dim><dim>128</dim><dim>768</dim></port></output></layer><layer id="104" name="BertForSequenceClassification/BertModel[bert]/BertEncoder[encoder]/ModuleList[layer]/BertLayer[2]/BertAttention[attention]/BertSelfAttention[self]/NNCFLinear[key]/SymmetricQuantizer/symmetric_quantize_1" type="Symmetric_Quantize"><data metatype="unknown" /><input><port id="0"><dim>32</dim><dim>128</dim><dim>768</dim></port></input><output><port id="0"><dim>32</dim><dim>128</dim><dim>768</dim></port></output></layer><layer id="105" name="BertForSequenceClassification/BertModel[bert]/BertEncoder[encoder]/ModuleList[layer]/BertLayer[2]/BertAttention[attention]/BertSelfAttention[self]/view_0" type="View"><data metatype="ReshapeOp" /><input><port id="0"><dim>32</dim><dim>128</dim><dim>768</dim></port></input><output><port id="0"><dim>32</dim><dim>128</dim><dim>12</dim><dim>64</dim></port></output></layer><layer id="106" name="BertForSequenceClassification/BertModel[bert]/BertEncoder[encoder]/ModuleList[layer]/BertLayer[2]/BertAttention[attention]/BertSelfAttention[self]/permute_0" type="Permute"><data metatype="TransposeOp" /><input><port id="0"><dim>32</dim><dim>128</dim><dim>12</dim><dim>64</dim></port></input><output><port id="0"><dim>32</dim><dim>12</dim><dim>128</dim><dim>64</dim></port></output></layer><layer id="107" name="BertForSequenceClassification/BertModel[bert]/BertEncoder[encoder]/ModuleList[layer]/BertLayer[2]/BertAttention[attention]/BertSelfAttention[self]/NNCFLinear[value]/ModuleDict[pre_ops]/UpdateWeight[0]/SymmetricQuantizer[op]/symmetric_quantize_0" type="Symmetric_Quantize"><data metatype="unknown" /><output><port id="0"><dim>768</dim><dim>768</dim></port></output></layer><layer id="108" name="BertForSequenceClassification/BertModel[bert]/BertEncoder[encoder]/ModuleList[layer]/BertLayer[2]/BertAttention[attention]/BertSelfAttention[self]/NNCFLinear[value]/SymmetricQuantizer/symmetric_quantize_0" type="Symmetric_Quantize"><data metatype="unknown" /><input><port id="0"><dim>32</dim><dim>128</dim><dim>768</dim></port></input><output><port id="0"><dim>32</dim><dim>128</dim><dim>768</dim></port></output></layer><layer id="109" name="BertForSequenceClassification/BertModel[bert]/BertEncoder[encoder]/ModuleList[layer]/BertLayer[2]/BertAttention[attention]/BertSelfAttention[self]/NNCFLinear[value]/linear_0" type="Linear"><data metatype="LinearOp" /><input><port id="0"><dim>32</dim><dim>128</dim><dim>768</dim></port><port id="1"><dim>768</dim><dim>768</dim></port></input><output><port id="0"><dim>32</dim><dim>128</dim><dim>768</dim></port></output></layer><layer id="110" name="BertForSequenceClassification/BertModel[bert]/BertEncoder[encoder]/ModuleList[layer]/BertLayer[2]/BertAttention[attention]/BertSelfAttention[self]/view_1" type="View"><data metatype="ReshapeOp" /><input><port id="0"><dim>32</dim><dim>128</dim><dim>768</dim></port></input><output><port id="0"><dim>32</dim><dim>128</dim><dim>12</dim><dim>64</dim></port></output></layer><layer id="111" name="BertForSequenceClassification/BertModel[bert]/BertEncoder[encoder]/ModuleList[layer]/BertLayer[2]/BertAttention[attention]/BertSelfAttention[self]/permute_1" type="Permute"><data metatype="TransposeOp" /><input><port id="0"><dim>32</dim><dim>128</dim><dim>12</dim><dim>64</dim></port></input><output><port id="0"><dim>32</dim><dim>12</dim><dim>128</dim><dim>64</dim></port></output></layer><layer id="112" name="BertForSequenceClassification/BertModel[bert]/BertEncoder[encoder]/ModuleList[layer]/BertLayer[2]/BertAttention[attention]/BertSelfAttention[self]/view_2" type="View"><data metatype="ReshapeOp" /><input><port id="0"><dim>32</dim><dim>128</dim><dim>768</dim></port></input><output><port id="0"><dim>32</dim><dim>128</dim><dim>12</dim><dim>64</dim></port></output></layer><layer id="113" name="BertForSequenceClassification/BertModel[bert]/BertEncoder[encoder]/ModuleList[layer]/BertLayer[2]/BertAttention[attention]/BertSelfAttention[self]/permute_2" type="Permute"><data metatype="TransposeOp" /><input><port id="0"><dim>32</dim><dim>128</dim><dim>12</dim><dim>64</dim></port></input><output><port id="0"><dim>32</dim><dim>12</dim><dim>128</dim><dim>64</dim></port></output></layer><layer id="114" name="BertForSequenceClassification/BertModel[bert]/BertEncoder[encoder]/ModuleList[layer]/BertLayer[2]/BertAttention[attention]/BertSelfAttention[self]/transpose_0" type="Transpose"><data metatype="TransposeOp" /><input><port id="0"><dim>32</dim><dim>12</dim><dim>128</dim><dim>64</dim></port></input><output><port id="0"><dim>32</dim><dim>12</dim><dim>64</dim><dim>128</dim></port></output></layer><layer id="115" name="BertForSequenceClassification/BertModel[bert]/BertEncoder[encoder]/ModuleList[layer]/BertLayer[2]/BertAttention[attention]/BertSelfAttention[self]/matmul_0" type="Matmul"><data metatype="MatMulOp" /><input><port id="0"><dim>32</dim><dim>12</dim><dim>128</dim><dim>64</dim></port><port id="1"><dim>32</dim><dim>12</dim><dim>64</dim><dim>128</dim></port></input><output><port id="0"><dim>32</dim><dim>12</dim><dim>128</dim><dim>128</dim></port></output></layer><layer id="116" name="BertForSequenceClassification/BertModel[bert]/BertEncoder[encoder]/ModuleList[layer]/BertLayer[2]/BertAttention[attention]/BertSelfAttention[self]/__truediv___0" type="__Truediv__"><data metatype="DivOp" /><input><port id="0"><dim>32</dim><dim>12</dim><dim>128</dim><dim>128</dim></port></input><output><port id="0"><dim>32</dim><dim>12</dim><dim>128</dim><dim>128</dim></port></output></layer><layer id="117" name="BertForSequenceClassification/BertModel[bert]/BertEncoder[encoder]/ModuleList[layer]/BertLayer[2]/BertAttention[attention]/BertSelfAttention[self]/__add___0" type="__Add__"><data metatype="AddOp" /><input><port id="0"><dim>32</dim><dim>12</dim><dim>128</dim><dim>128</dim></port></input><output><port id="0"><dim>32</dim><dim>12</dim><dim>128</dim><dim>128</dim></port></output></layer><layer id="118" name="BertForSequenceClassification/BertModel[bert]/BertEncoder[encoder]/ModuleList[layer]/BertLayer[2]/BertAttention[attention]/BertSelfAttention[self]/softmax_0" type="Softmax"><data metatype="SoftmaxOp" /><input><port id="0"><dim>32</dim><dim>12</dim><dim>128</dim><dim>128</dim></port></input><output><port id="0"><dim>32</dim><dim>12</dim><dim>128</dim><dim>128</dim></port></output></layer><layer id="119" name="BertForSequenceClassification/BertModel[bert]/BertEncoder[encoder]/ModuleList[layer]/BertLayer[2]/BertAttention[attention]/BertSelfAttention[self]/Dropout[dropout]/dropout_0" type="Dropout"><data metatype="DropoutOp" /><input><port id="0"><dim>32</dim><dim>12</dim><dim>128</dim><dim>128</dim></port></input><output><port id="0"><dim>32</dim><dim>12</dim><dim>128</dim><dim>128</dim></port></output></layer><layer id="120" name="BertForSequenceClassification/BertModel[bert]/BertEncoder[encoder]/ModuleList[layer]/BertLayer[2]/BertAttention[attention]/BertSelfAttention[self]/matmul_1" type="Matmul"><data metatype="MatMulOp" /><input><port id="0"><dim>32</dim><dim>12</dim><dim>128</dim><dim>128</dim></port><port id="1"><dim>32</dim><dim>12</dim><dim>128</dim><dim>64</dim></port></input><output><port id="0"><dim>32</dim><dim>12</dim><dim>128</dim><dim>64</dim></port></output></layer><layer id="121" name="BertForSequenceClassification/BertModel[bert]/BertEncoder[encoder]/ModuleList[layer]/BertLayer[2]/BertAttention[attention]/BertSelfAttention[self]/SymmetricQuantizer/symmetric_quantize_0" type="Symmetric_Quantize"><data metatype="unknown" /><input><port id="0"><dim>32</dim><dim>12</dim><dim>128</dim><dim>64</dim></port></input><output><port id="0"><dim>32</dim><dim>12</dim><dim>128</dim><dim>64</dim></port></output></layer><layer id="122" name="BertForSequenceClassification/BertModel[bert]/BertEncoder[encoder]/ModuleList[layer]/BertLayer[2]/BertAttention[attention]/BertSelfAttention[self]/permute_3" type="Permute"><data metatype="TransposeOp" /><input><port id="0"><dim>32</dim><dim>12</dim><dim>128</dim><dim>64</dim></port></input><output><port id="0"><dim>32</dim><dim>128</dim><dim>12</dim><dim>64</dim></port></output></layer><layer id="123" name="BertForSequenceClassification/BertModel[bert]/BertEncoder[encoder]/ModuleList[layer]/BertLayer[2]/BertAttention[attention]/BertSelfAttention[self]/contiguous_0" type="Contiguous"><data metatype="noop" /><input><port id="0"><dim>32</dim><dim>128</dim><dim>12</dim><dim>64</dim></port></input><output><port id="0"><dim>32</dim><dim>128</dim><dim>12</dim><dim>64</dim></port></output></layer><layer id="124" name="BertForSequenceClassification/BertModel[bert]/BertEncoder[encoder]/ModuleList[layer]/BertLayer[2]/BertAttention[attention]/BertSelfAttention[self]/view_3" type="View"><data metatype="ReshapeOp" /><input><port id="0"><dim>32</dim><dim>128</dim><dim>12</dim><dim>64</dim></port></input><output><port id="0"><dim>32</dim><dim>128</dim><dim>768</dim></port></output></layer><layer id="125" name="BertForSequenceClassification/BertModel[bert]/BertEncoder[encoder]/ModuleList[layer]/BertLayer[2]/BertAttention[attention]/BertSelfOutput[output]/NNCFLinear[dense]/ModuleDict[pre_ops]/UpdateWeight[0]/SymmetricQuantizer[op]/symmetric_quantize_0" type="Symmetric_Quantize"><data metatype="unknown" /><output><port id="0"><dim>768</dim><dim>768</dim></port></output></layer><layer id="126" name="BertForSequenceClassification/BertModel[bert]/BertEncoder[encoder]/ModuleList[layer]/BertLayer[2]/BertAttention[attention]/BertSelfOutput[output]/NNCFLinear[dense]/linear_0" type="Linear"><data metatype="LinearOp" /><input><port id="0"><dim>32</dim><dim>128</dim><dim>768</dim></port><port id="1"><dim>768</dim><dim>768</dim></port></input><output><port id="0"><dim>32</dim><dim>128</dim><dim>768</dim></port></output></layer><layer id="127" name="BertForSequenceClassification/BertModel[bert]/BertEncoder[encoder]/ModuleList[layer]/BertLayer[2]/BertAttention[attention]/BertSelfOutput[output]/Dropout[dropout]/dropout_0" type="Dropout"><data metatype="DropoutOp" /><input><port id="0"><dim>32</dim><dim>128</dim><dim>768</dim></port></input><output><port id="0"><dim>32</dim><dim>128</dim><dim>768</dim></port></output></layer><layer id="128" name="BertForSequenceClassification/BertModel[bert]/BertEncoder[encoder]/ModuleList[layer]/BertLayer[2]/BertAttention[attention]/BertSelfOutput[output]/__add___0" type="__Add__"><data metatype="AddOp" /><input><port id="0"><dim>32</dim><dim>128</dim><dim>768</dim></port><port id="1"><dim>32</dim><dim>128</dim><dim>768</dim></port></input><output><port id="0"><dim>32</dim><dim>128</dim><dim>768</dim></port></output></layer><layer id="129" name="BertForSequenceClassification/BertModel[bert]/BertEncoder[encoder]/ModuleList[layer]/BertLayer[2]/BertAttention[attention]/BertSelfOutput[output]/NNCFLayerNorm[LayerNorm]/layer_norm_0" type="Layer_Norm"><data metatype="LayerNormOp" /><input><port id="0"><dim>32</dim><dim>128</dim><dim>768</dim></port></input><output><port id="0"><dim>32</dim><dim>128</dim><dim>768</dim></port><port id="0"><dim>32</dim><dim>128</dim><dim>768</dim></port></output></layer><layer id="130" name="BertForSequenceClassification/BertModel[bert]/BertEncoder[encoder]/ModuleList[layer]/BertLayer[2]/BertIntermediate[intermediate]/NNCFLinear[dense]/ModuleDict[pre_ops]/UpdateWeight[0]/SymmetricQuantizer[op]/symmetric_quantize_0" type="Symmetric_Quantize"><data metatype="unknown" /><output><port id="0"><dim>3072</dim><dim>768</dim></port></output></layer><layer id="131" name="BertForSequenceClassification/BertModel[bert]/BertEncoder[encoder]/ModuleList[layer]/BertLayer[2]/BertIntermediate[intermediate]/NNCFLinear[dense]/SymmetricQuantizer/symmetric_quantize_0" type="Symmetric_Quantize"><data metatype="unknown" /><input><port id="0"><dim>32</dim><dim>128</dim><dim>768</dim></port></input><output><port id="0"><dim>32</dim><dim>128</dim><dim>768</dim></port></output></layer><layer id="132" name="BertForSequenceClassification/BertModel[bert]/BertEncoder[encoder]/ModuleList[layer]/BertLayer[2]/BertIntermediate[intermediate]/NNCFLinear[dense]/linear_0" type="Linear"><data metatype="LinearOp" /><input><port id="0"><dim>32</dim><dim>128</dim><dim>768</dim></port><port id="1"><dim>3072</dim><dim>768</dim></port></input><output><port id="0"><dim>32</dim><dim>128</dim><dim>3072</dim></port></output></layer><layer id="133" name="BertForSequenceClassification/BertModel[bert]/BertEncoder[encoder]/ModuleList[layer]/BertLayer[2]/BertIntermediate[intermediate]/GELUActivation[intermediate_act_fn]/gelu_0" type="Gelu"><data metatype="GeluOp" /><input><port id="0"><dim>32</dim><dim>128</dim><dim>3072</dim></port></input><output><port id="0"><dim>32</dim><dim>128</dim><dim>3072</dim></port></output></layer><layer id="134" name="BertForSequenceClassification/BertModel[bert]/BertEncoder[encoder]/ModuleList[layer]/BertLayer[2]/BertIntermediate[intermediate]/GELUActivation[intermediate_act_fn]/SymmetricQuantizer/symmetric_quantize_0" type="Symmetric_Quantize"><data metatype="unknown" /><input><port id="0"><dim>32</dim><dim>128</dim><dim>3072</dim></port></input><output><port id="0"><dim>32</dim><dim>128</dim><dim>3072</dim></port></output></layer><layer id="135" name="BertForSequenceClassification/BertModel[bert]/BertEncoder[encoder]/ModuleList[layer]/BertLayer[2]/BertOutput[output]/NNCFLinear[dense]/ModuleDict[pre_ops]/UpdateWeight[0]/SymmetricQuantizer[op]/symmetric_quantize_0" type="Symmetric_Quantize"><data metatype="unknown" /><output><port id="0"><dim>768</dim><dim>3072</dim></port></output></layer><layer id="136" name="BertForSequenceClassification/BertModel[bert]/BertEncoder[encoder]/ModuleList[layer]/BertLayer[2]/BertOutput[output]/NNCFLinear[dense]/linear_0" type="Linear"><data metatype="LinearOp" /><input><port id="0"><dim>32</dim><dim>128</dim><dim>3072</dim></port><port id="1"><dim>768</dim><dim>3072</dim></port></input><output><port id="0"><dim>32</dim><dim>128</dim><dim>768</dim></port></output></layer><layer id="137" name="BertForSequenceClassification/BertModel[bert]/BertEncoder[encoder]/ModuleList[layer]/BertLayer[2]/BertOutput[output]/Dropout[dropout]/dropout_0" type="Dropout"><data metatype="DropoutOp" /><input><port id="0"><dim>32</dim><dim>128</dim><dim>768</dim></port></input><output><port id="0"><dim>32</dim><dim>128</dim><dim>768</dim></port></output></layer><layer id="138" name="BertForSequenceClassification/BertModel[bert]/BertEncoder[encoder]/ModuleList[layer]/BertLayer[2]/BertOutput[output]/__add___0" type="__Add__"><data metatype="AddOp" /><input><port id="0"><dim>32</dim><dim>128</dim><dim>768</dim></port><port id="1"><dim>32</dim><dim>128</dim><dim>768</dim></port></input><output><port id="0"><dim>32</dim><dim>128</dim><dim>768</dim></port></output></layer><layer id="139" name="BertForSequenceClassification/BertModel[bert]/BertEncoder[encoder]/ModuleList[layer]/BertLayer[2]/BertOutput[output]/NNCFLayerNorm[LayerNorm]/layer_norm_0" type="Layer_Norm"><data metatype="LayerNormOp" /><input><port id="0"><dim>32</dim><dim>128</dim><dim>768</dim></port></input><output><port id="0"><dim>32</dim><dim>128</dim><dim>768</dim></port><port id="0"><dim>32</dim><dim>128</dim><dim>768</dim></port><port id="0"><dim>32</dim><dim>128</dim><dim>768</dim></port><port id="0"><dim>32</dim><dim>128</dim><dim>768</dim></port></output></layer><layer id="140" name="BertForSequenceClassification/BertModel[bert]/BertEncoder[encoder]/ModuleList[layer]/BertLayer[3]/BertAttention[attention]/BertSelfAttention[self]/NNCFLinear[query]/ModuleDict[pre_ops]/UpdateWeight[0]/SymmetricQuantizer[op]/symmetric_quantize_0" type="Symmetric_Quantize"><data metatype="unknown" /><output><port id="0"><dim>768</dim><dim>768</dim></port></output></layer><layer id="141" name="BertForSequenceClassification/BertModel[bert]/BertEncoder[encoder]/ModuleList[layer]/BertLayer[3]/BertAttention[attention]/BertSelfAttention[self]/NNCFLinear[query]/SymmetricQuantizer/symmetric_quantize_0" type="Symmetric_Quantize"><data metatype="unknown" /><input><port id="0"><dim>32</dim><dim>128</dim><dim>768</dim></port></input><output><port id="0"><dim>32</dim><dim>128</dim><dim>768</dim></port></output></layer><layer id="142" name="BertForSequenceClassification/BertModel[bert]/BertEncoder[encoder]/ModuleList[layer]/BertLayer[3]/BertAttention[attention]/BertSelfAttention[self]/NNCFLinear[query]/linear_0" type="Linear"><data metatype="LinearOp" /><input><port id="0"><dim>32</dim><dim>128</dim><dim>768</dim></port><port id="1"><dim>768</dim><dim>768</dim></port></input><output><port id="0"><dim>32</dim><dim>128</dim><dim>768</dim></port></output></layer><layer id="143" name="BertForSequenceClassification/BertModel[bert]/BertEncoder[encoder]/ModuleList[layer]/BertLayer[3]/BertAttention[attention]/BertSelfAttention[self]/NNCFLinear[query]/SymmetricQuantizer/symmetric_quantize_1" type="Symmetric_Quantize"><data metatype="unknown" /><input><port id="0"><dim>32</dim><dim>128</dim><dim>768</dim></port></input><output><port id="0"><dim>32</dim><dim>128</dim><dim>768</dim></port></output></layer><layer id="144" name="BertForSequenceClassification/BertModel[bert]/BertEncoder[encoder]/ModuleList[layer]/BertLayer[3]/BertAttention[attention]/BertSelfAttention[self]/NNCFLinear[key]/ModuleDict[pre_ops]/UpdateWeight[0]/SymmetricQuantizer[op]/symmetric_quantize_0" type="Symmetric_Quantize"><data metatype="unknown" /><output><port id="0"><dim>768</dim><dim>768</dim></port></output></layer><layer id="145" name="BertForSequenceClassification/BertModel[bert]/BertEncoder[encoder]/ModuleList[layer]/BertLayer[3]/BertAttention[attention]/BertSelfAttention[self]/NNCFLinear[key]/SymmetricQuantizer/symmetric_quantize_0" type="Symmetric_Quantize"><data metatype="unknown" /><input><port id="0"><dim>32</dim><dim>128</dim><dim>768</dim></port></input><output><port id="0"><dim>32</dim><dim>128</dim><dim>768</dim></port></output></layer><layer id="146" name="BertForSequenceClassification/BertModel[bert]/BertEncoder[encoder]/ModuleList[layer]/BertLayer[3]/BertAttention[attention]/BertSelfAttention[self]/NNCFLinear[key]/linear_0" type="Linear"><data metatype="LinearOp" /><input><port id="0"><dim>32</dim><dim>128</dim><dim>768</dim></port><port id="1"><dim>768</dim><dim>768</dim></port></input><output><port id="0"><dim>32</dim><dim>128</dim><dim>768</dim></port></output></layer><layer id="147" name="BertForSequenceClassification/BertModel[bert]/BertEncoder[encoder]/ModuleList[layer]/BertLayer[3]/BertAttention[attention]/BertSelfAttention[self]/NNCFLinear[key]/SymmetricQuantizer/symmetric_quantize_1" type="Symmetric_Quantize"><data metatype="unknown" /><input><port id="0"><dim>32</dim><dim>128</dim><dim>768</dim></port></input><output><port id="0"><dim>32</dim><dim>128</dim><dim>768</dim></port></output></layer><layer id="148" name="BertForSequenceClassification/BertModel[bert]/BertEncoder[encoder]/ModuleList[layer]/BertLayer[3]/BertAttention[attention]/BertSelfAttention[self]/view_0" type="View"><data metatype="ReshapeOp" /><input><port id="0"><dim>32</dim><dim>128</dim><dim>768</dim></port></input><output><port id="0"><dim>32</dim><dim>128</dim><dim>12</dim><dim>64</dim></port></output></layer><layer id="149" name="BertForSequenceClassification/BertModel[bert]/BertEncoder[encoder]/ModuleList[layer]/BertLayer[3]/BertAttention[attention]/BertSelfAttention[self]/permute_0" type="Permute"><data metatype="TransposeOp" /><input><port id="0"><dim>32</dim><dim>128</dim><dim>12</dim><dim>64</dim></port></input><output><port id="0"><dim>32</dim><dim>12</dim><dim>128</dim><dim>64</dim></port></output></layer><layer id="150" name="BertForSequenceClassification/BertModel[bert]/BertEncoder[encoder]/ModuleList[layer]/BertLayer[3]/BertAttention[attention]/BertSelfAttention[self]/NNCFLinear[value]/ModuleDict[pre_ops]/UpdateWeight[0]/SymmetricQuantizer[op]/symmetric_quantize_0" type="Symmetric_Quantize"><data metatype="unknown" /><output><port id="0"><dim>768</dim><dim>768</dim></port></output></layer><layer id="151" name="BertForSequenceClassification/BertModel[bert]/BertEncoder[encoder]/ModuleList[layer]/BertLayer[3]/BertAttention[attention]/BertSelfAttention[self]/NNCFLinear[value]/SymmetricQuantizer/symmetric_quantize_0" type="Symmetric_Quantize"><data metatype="unknown" /><input><port id="0"><dim>32</dim><dim>128</dim><dim>768</dim></port></input><output><port id="0"><dim>32</dim><dim>128</dim><dim>768</dim></port></output></layer><layer id="152" name="BertForSequenceClassification/BertModel[bert]/BertEncoder[encoder]/ModuleList[layer]/BertLayer[3]/BertAttention[attention]/BertSelfAttention[self]/NNCFLinear[value]/linear_0" type="Linear"><data metatype="LinearOp" /><input><port id="0"><dim>32</dim><dim>128</dim><dim>768</dim></port><port id="1"><dim>768</dim><dim>768</dim></port></input><output><port id="0"><dim>32</dim><dim>128</dim><dim>768</dim></port></output></layer><layer id="153" name="BertForSequenceClassification/BertModel[bert]/BertEncoder[encoder]/ModuleList[layer]/BertLayer[3]/BertAttention[attention]/BertSelfAttention[self]/view_1" type="View"><data metatype="ReshapeOp" /><input><port id="0"><dim>32</dim><dim>128</dim><dim>768</dim></port></input><output><port id="0"><dim>32</dim><dim>128</dim><dim>12</dim><dim>64</dim></port></output></layer><layer id="154" name="BertForSequenceClassification/BertModel[bert]/BertEncoder[encoder]/ModuleList[layer]/BertLayer[3]/BertAttention[attention]/BertSelfAttention[self]/permute_1" type="Permute"><data metatype="TransposeOp" /><input><port id="0"><dim>32</dim><dim>128</dim><dim>12</dim><dim>64</dim></port></input><output><port id="0"><dim>32</dim><dim>12</dim><dim>128</dim><dim>64</dim></port></output></layer><layer id="155" name="BertForSequenceClassification/BertModel[bert]/BertEncoder[encoder]/ModuleList[layer]/BertLayer[3]/BertAttention[attention]/BertSelfAttention[self]/view_2" type="View"><data metatype="ReshapeOp" /><input><port id="0"><dim>32</dim><dim>128</dim><dim>768</dim></port></input><output><port id="0"><dim>32</dim><dim>128</dim><dim>12</dim><dim>64</dim></port></output></layer><layer id="156" name="BertForSequenceClassification/BertModel[bert]/BertEncoder[encoder]/ModuleList[layer]/BertLayer[3]/BertAttention[attention]/BertSelfAttention[self]/permute_2" type="Permute"><data metatype="TransposeOp" /><input><port id="0"><dim>32</dim><dim>128</dim><dim>12</dim><dim>64</dim></port></input><output><port id="0"><dim>32</dim><dim>12</dim><dim>128</dim><dim>64</dim></port></output></layer><layer id="157" name="BertForSequenceClassification/BertModel[bert]/BertEncoder[encoder]/ModuleList[layer]/BertLayer[3]/BertAttention[attention]/BertSelfAttention[self]/transpose_0" type="Transpose"><data metatype="TransposeOp" /><input><port id="0"><dim>32</dim><dim>12</dim><dim>128</dim><dim>64</dim></port></input><output><port id="0"><dim>32</dim><dim>12</dim><dim>64</dim><dim>128</dim></port></output></layer><layer id="158" name="BertForSequenceClassification/BertModel[bert]/BertEncoder[encoder]/ModuleList[layer]/BertLayer[3]/BertAttention[attention]/BertSelfAttention[self]/matmul_0" type="Matmul"><data metatype="MatMulOp" /><input><port id="0"><dim>32</dim><dim>12</dim><dim>128</dim><dim>64</dim></port><port id="1"><dim>32</dim><dim>12</dim><dim>64</dim><dim>128</dim></port></input><output><port id="0"><dim>32</dim><dim>12</dim><dim>128</dim><dim>128</dim></port></output></layer><layer id="159" name="BertForSequenceClassification/BertModel[bert]/BertEncoder[encoder]/ModuleList[layer]/BertLayer[3]/BertAttention[attention]/BertSelfAttention[self]/__truediv___0" type="__Truediv__"><data metatype="DivOp" /><input><port id="0"><dim>32</dim><dim>12</dim><dim>128</dim><dim>128</dim></port></input><output><port id="0"><dim>32</dim><dim>12</dim><dim>128</dim><dim>128</dim></port></output></layer><layer id="160" name="BertForSequenceClassification/BertModel[bert]/BertEncoder[encoder]/ModuleList[layer]/BertLayer[3]/BertAttention[attention]/BertSelfAttention[self]/__add___0" type="__Add__"><data metatype="AddOp" /><input><port id="0"><dim>32</dim><dim>12</dim><dim>128</dim><dim>128</dim></port></input><output><port id="0"><dim>32</dim><dim>12</dim><dim>128</dim><dim>128</dim></port></output></layer><layer id="161" name="BertForSequenceClassification/BertModel[bert]/BertEncoder[encoder]/ModuleList[layer]/BertLayer[3]/BertAttention[attention]/BertSelfAttention[self]/softmax_0" type="Softmax"><data metatype="SoftmaxOp" /><input><port id="0"><dim>32</dim><dim>12</dim><dim>128</dim><dim>128</dim></port></input><output><port id="0"><dim>32</dim><dim>12</dim><dim>128</dim><dim>128</dim></port></output></layer><layer id="162" name="BertForSequenceClassification/BertModel[bert]/BertEncoder[encoder]/ModuleList[layer]/BertLayer[3]/BertAttention[attention]/BertSelfAttention[self]/Dropout[dropout]/dropout_0" type="Dropout"><data metatype="DropoutOp" /><input><port id="0"><dim>32</dim><dim>12</dim><dim>128</dim><dim>128</dim></port></input><output><port id="0"><dim>32</dim><dim>12</dim><dim>128</dim><dim>128</dim></port></output></layer><layer id="163" name="BertForSequenceClassification/BertModel[bert]/BertEncoder[encoder]/ModuleList[layer]/BertLayer[3]/BertAttention[attention]/BertSelfAttention[self]/matmul_1" type="Matmul"><data metatype="MatMulOp" /><input><port id="0"><dim>32</dim><dim>12</dim><dim>128</dim><dim>128</dim></port><port id="1"><dim>32</dim><dim>12</dim><dim>128</dim><dim>64</dim></port></input><output><port id="0"><dim>32</dim><dim>12</dim><dim>128</dim><dim>64</dim></port></output></layer><layer id="164" name="BertForSequenceClassification/BertModel[bert]/BertEncoder[encoder]/ModuleList[layer]/BertLayer[3]/BertAttention[attention]/BertSelfAttention[self]/SymmetricQuantizer/symmetric_quantize_0" type="Symmetric_Quantize"><data metatype="unknown" /><input><port id="0"><dim>32</dim><dim>12</dim><dim>128</dim><dim>64</dim></port></input><output><port id="0"><dim>32</dim><dim>12</dim><dim>128</dim><dim>64</dim></port></output></layer><layer id="165" name="BertForSequenceClassification/BertModel[bert]/BertEncoder[encoder]/ModuleList[layer]/BertLayer[3]/BertAttention[attention]/BertSelfAttention[self]/permute_3" type="Permute"><data metatype="TransposeOp" /><input><port id="0"><dim>32</dim><dim>12</dim><dim>128</dim><dim>64</dim></port></input><output><port id="0"><dim>32</dim><dim>128</dim><dim>12</dim><dim>64</dim></port></output></layer><layer id="166" name="BertForSequenceClassification/BertModel[bert]/BertEncoder[encoder]/ModuleList[layer]/BertLayer[3]/BertAttention[attention]/BertSelfAttention[self]/contiguous_0" type="Contiguous"><data metatype="noop" /><input><port id="0"><dim>32</dim><dim>128</dim><dim>12</dim><dim>64</dim></port></input><output><port id="0"><dim>32</dim><dim>128</dim><dim>12</dim><dim>64</dim></port></output></layer><layer id="167" name="BertForSequenceClassification/BertModel[bert]/BertEncoder[encoder]/ModuleList[layer]/BertLayer[3]/BertAttention[attention]/BertSelfAttention[self]/view_3" type="View"><data metatype="ReshapeOp" /><input><port id="0"><dim>32</dim><dim>128</dim><dim>12</dim><dim>64</dim></port></input><output><port id="0"><dim>32</dim><dim>128</dim><dim>768</dim></port></output></layer><layer id="168" name="BertForSequenceClassification/BertModel[bert]/BertEncoder[encoder]/ModuleList[layer]/BertLayer[3]/BertAttention[attention]/BertSelfOutput[output]/NNCFLinear[dense]/ModuleDict[pre_ops]/UpdateWeight[0]/SymmetricQuantizer[op]/symmetric_quantize_0" type="Symmetric_Quantize"><data metatype="unknown" /><output><port id="0"><dim>768</dim><dim>768</dim></port></output></layer><layer id="169" name="BertForSequenceClassification/BertModel[bert]/BertEncoder[encoder]/ModuleList[layer]/BertLayer[3]/BertAttention[attention]/BertSelfOutput[output]/NNCFLinear[dense]/linear_0" type="Linear"><data metatype="LinearOp" /><input><port id="0"><dim>32</dim><dim>128</dim><dim>768</dim></port><port id="1"><dim>768</dim><dim>768</dim></port></input><output><port id="0"><dim>32</dim><dim>128</dim><dim>768</dim></port></output></layer><layer id="170" name="BertForSequenceClassification/BertModel[bert]/BertEncoder[encoder]/ModuleList[layer]/BertLayer[3]/BertAttention[attention]/BertSelfOutput[output]/Dropout[dropout]/dropout_0" type="Dropout"><data metatype="DropoutOp" /><input><port id="0"><dim>32</dim><dim>128</dim><dim>768</dim></port></input><output><port id="0"><dim>32</dim><dim>128</dim><dim>768</dim></port></output></layer><layer id="171" name="BertForSequenceClassification/BertModel[bert]/BertEncoder[encoder]/ModuleList[layer]/BertLayer[3]/BertAttention[attention]/BertSelfOutput[output]/__add___0" type="__Add__"><data metatype="AddOp" /><input><port id="0"><dim>32</dim><dim>128</dim><dim>768</dim></port><port id="1"><dim>32</dim><dim>128</dim><dim>768</dim></port></input><output><port id="0"><dim>32</dim><dim>128</dim><dim>768</dim></port></output></layer><layer id="172" name="BertForSequenceClassification/BertModel[bert]/BertEncoder[encoder]/ModuleList[layer]/BertLayer[3]/BertAttention[attention]/BertSelfOutput[output]/NNCFLayerNorm[LayerNorm]/layer_norm_0" type="Layer_Norm"><data metatype="LayerNormOp" /><input><port id="0"><dim>32</dim><dim>128</dim><dim>768</dim></port></input><output><port id="0"><dim>32</dim><dim>128</dim><dim>768</dim></port><port id="0"><dim>32</dim><dim>128</dim><dim>768</dim></port></output></layer><layer id="173" name="BertForSequenceClassification/BertModel[bert]/BertEncoder[encoder]/ModuleList[layer]/BertLayer[3]/BertIntermediate[intermediate]/NNCFLinear[dense]/ModuleDict[pre_ops]/UpdateWeight[0]/SymmetricQuantizer[op]/symmetric_quantize_0" type="Symmetric_Quantize"><data metatype="unknown" /><output><port id="0"><dim>3072</dim><dim>768</dim></port></output></layer><layer id="174" name="BertForSequenceClassification/BertModel[bert]/BertEncoder[encoder]/ModuleList[layer]/BertLayer[3]/BertIntermediate[intermediate]/NNCFLinear[dense]/SymmetricQuantizer/symmetric_quantize_0" type="Symmetric_Quantize"><data metatype="unknown" /><input><port id="0"><dim>32</dim><dim>128</dim><dim>768</dim></port></input><output><port id="0"><dim>32</dim><dim>128</dim><dim>768</dim></port></output></layer><layer id="175" name="BertForSequenceClassification/BertModel[bert]/BertEncoder[encoder]/ModuleList[layer]/BertLayer[3]/BertIntermediate[intermediate]/NNCFLinear[dense]/linear_0" type="Linear"><data metatype="LinearOp" /><input><port id="0"><dim>32</dim><dim>128</dim><dim>768</dim></port><port id="1"><dim>3072</dim><dim>768</dim></port></input><output><port id="0"><dim>32</dim><dim>128</dim><dim>3072</dim></port></output></layer><layer id="176" name="BertForSequenceClassification/BertModel[bert]/BertEncoder[encoder]/ModuleList[layer]/BertLayer[3]/BertIntermediate[intermediate]/GELUActivation[intermediate_act_fn]/gelu_0" type="Gelu"><data metatype="GeluOp" /><input><port id="0"><dim>32</dim><dim>128</dim><dim>3072</dim></port></input><output><port id="0"><dim>32</dim><dim>128</dim><dim>3072</dim></port></output></layer><layer id="177" name="BertForSequenceClassification/BertModel[bert]/BertEncoder[encoder]/ModuleList[layer]/BertLayer[3]/BertIntermediate[intermediate]/GELUActivation[intermediate_act_fn]/SymmetricQuantizer/symmetric_quantize_0" type="Symmetric_Quantize"><data metatype="unknown" /><input><port id="0"><dim>32</dim><dim>128</dim><dim>3072</dim></port></input><output><port id="0"><dim>32</dim><dim>128</dim><dim>3072</dim></port></output></layer><layer id="178" name="BertForSequenceClassification/BertModel[bert]/BertEncoder[encoder]/ModuleList[layer]/BertLayer[3]/BertOutput[output]/NNCFLinear[dense]/ModuleDict[pre_ops]/UpdateWeight[0]/SymmetricQuantizer[op]/symmetric_quantize_0" type="Symmetric_Quantize"><data metatype="unknown" /><output><port id="0"><dim>768</dim><dim>3072</dim></port></output></layer><layer id="179" name="BertForSequenceClassification/BertModel[bert]/BertEncoder[encoder]/ModuleList[layer]/BertLayer[3]/BertOutput[output]/NNCFLinear[dense]/linear_0" type="Linear"><data metatype="LinearOp" /><input><port id="0"><dim>32</dim><dim>128</dim><dim>3072</dim></port><port id="1"><dim>768</dim><dim>3072</dim></port></input><output><port id="0"><dim>32</dim><dim>128</dim><dim>768</dim></port></output></layer><layer id="180" name="BertForSequenceClassification/BertModel[bert]/BertEncoder[encoder]/ModuleList[layer]/BertLayer[3]/BertOutput[output]/Dropout[dropout]/dropout_0" type="Dropout"><data metatype="DropoutOp" /><input><port id="0"><dim>32</dim><dim>128</dim><dim>768</dim></port></input><output><port id="0"><dim>32</dim><dim>128</dim><dim>768</dim></port></output></layer><layer id="181" name="BertForSequenceClassification/BertModel[bert]/BertEncoder[encoder]/ModuleList[layer]/BertLayer[3]/BertOutput[output]/__add___0" type="__Add__"><data metatype="AddOp" /><input><port id="0"><dim>32</dim><dim>128</dim><dim>768</dim></port><port id="1"><dim>32</dim><dim>128</dim><dim>768</dim></port></input><output><port id="0"><dim>32</dim><dim>128</dim><dim>768</dim></port></output></layer><layer id="182" name="BertForSequenceClassification/BertModel[bert]/BertEncoder[encoder]/ModuleList[layer]/BertLayer[3]/BertOutput[output]/NNCFLayerNorm[LayerNorm]/layer_norm_0" type="Layer_Norm"><data metatype="LayerNormOp" /><input><port id="0"><dim>32</dim><dim>128</dim><dim>768</dim></port></input><output><port id="0"><dim>32</dim><dim>128</dim><dim>768</dim></port><port id="0"><dim>32</dim><dim>128</dim><dim>768</dim></port><port id="0"><dim>32</dim><dim>128</dim><dim>768</dim></port><port id="0"><dim>32</dim><dim>128</dim><dim>768</dim></port></output></layer><layer id="183" name="BertForSequenceClassification/BertModel[bert]/BertEncoder[encoder]/ModuleList[layer]/BertLayer[4]/BertAttention[attention]/BertSelfAttention[self]/NNCFLinear[query]/ModuleDict[pre_ops]/UpdateWeight[0]/SymmetricQuantizer[op]/symmetric_quantize_0" type="Symmetric_Quantize"><data metatype="unknown" /><output><port id="0"><dim>768</dim><dim>768</dim></port></output></layer><layer id="184" name="BertForSequenceClassification/BertModel[bert]/BertEncoder[encoder]/ModuleList[layer]/BertLayer[4]/BertAttention[attention]/BertSelfAttention[self]/NNCFLinear[query]/SymmetricQuantizer/symmetric_quantize_0" type="Symmetric_Quantize"><data metatype="unknown" /><input><port id="0"><dim>32</dim><dim>128</dim><dim>768</dim></port></input><output><port id="0"><dim>32</dim><dim>128</dim><dim>768</dim></port></output></layer><layer id="185" name="BertForSequenceClassification/BertModel[bert]/BertEncoder[encoder]/ModuleList[layer]/BertLayer[4]/BertAttention[attention]/BertSelfAttention[self]/NNCFLinear[query]/linear_0" type="Linear"><data metatype="LinearOp" /><input><port id="0"><dim>32</dim><dim>128</dim><dim>768</dim></port><port id="1"><dim>768</dim><dim>768</dim></port></input><output><port id="0"><dim>32</dim><dim>128</dim><dim>768</dim></port></output></layer><layer id="186" name="BertForSequenceClassification/BertModel[bert]/BertEncoder[encoder]/ModuleList[layer]/BertLayer[4]/BertAttention[attention]/BertSelfAttention[self]/NNCFLinear[query]/SymmetricQuantizer/symmetric_quantize_1" type="Symmetric_Quantize"><data metatype="unknown" /><input><port id="0"><dim>32</dim><dim>128</dim><dim>768</dim></port></input><output><port id="0"><dim>32</dim><dim>128</dim><dim>768</dim></port></output></layer><layer id="187" name="BertForSequenceClassification/BertModel[bert]/BertEncoder[encoder]/ModuleList[layer]/BertLayer[4]/BertAttention[attention]/BertSelfAttention[self]/NNCFLinear[key]/ModuleDict[pre_ops]/UpdateWeight[0]/SymmetricQuantizer[op]/symmetric_quantize_0" type="Symmetric_Quantize"><data metatype="unknown" /><output><port id="0"><dim>768</dim><dim>768</dim></port></output></layer><layer id="188" name="BertForSequenceClassification/BertModel[bert]/BertEncoder[encoder]/ModuleList[layer]/BertLayer[4]/BertAttention[attention]/BertSelfAttention[self]/NNCFLinear[key]/SymmetricQuantizer/symmetric_quantize_0" type="Symmetric_Quantize"><data metatype="unknown" /><input><port id="0"><dim>32</dim><dim>128</dim><dim>768</dim></port></input><output><port id="0"><dim>32</dim><dim>128</dim><dim>768</dim></port></output></layer><layer id="189" name="BertForSequenceClassification/BertModel[bert]/BertEncoder[encoder]/ModuleList[layer]/BertLayer[4]/BertAttention[attention]/BertSelfAttention[self]/NNCFLinear[key]/linear_0" type="Linear"><data metatype="LinearOp" /><input><port id="0"><dim>32</dim><dim>128</dim><dim>768</dim></port><port id="1"><dim>768</dim><dim>768</dim></port></input><output><port id="0"><dim>32</dim><dim>128</dim><dim>768</dim></port></output></layer><layer id="190" name="BertForSequenceClassification/BertModel[bert]/BertEncoder[encoder]/ModuleList[layer]/BertLayer[4]/BertAttention[attention]/BertSelfAttention[self]/NNCFLinear[key]/SymmetricQuantizer/symmetric_quantize_1" type="Symmetric_Quantize"><data metatype="unknown" /><input><port id="0"><dim>32</dim><dim>128</dim><dim>768</dim></port></input><output><port id="0"><dim>32</dim><dim>128</dim><dim>768</dim></port></output></layer><layer id="191" name="BertForSequenceClassification/BertModel[bert]/BertEncoder[encoder]/ModuleList[layer]/BertLayer[4]/BertAttention[attention]/BertSelfAttention[self]/view_0" type="View"><data metatype="ReshapeOp" /><input><port id="0"><dim>32</dim><dim>128</dim><dim>768</dim></port></input><output><port id="0"><dim>32</dim><dim>128</dim><dim>12</dim><dim>64</dim></port></output></layer><layer id="192" name="BertForSequenceClassification/BertModel[bert]/BertEncoder[encoder]/ModuleList[layer]/BertLayer[4]/BertAttention[attention]/BertSelfAttention[self]/permute_0" type="Permute"><data metatype="TransposeOp" /><input><port id="0"><dim>32</dim><dim>128</dim><dim>12</dim><dim>64</dim></port></input><output><port id="0"><dim>32</dim><dim>12</dim><dim>128</dim><dim>64</dim></port></output></layer><layer id="193" name="BertForSequenceClassification/BertModel[bert]/BertEncoder[encoder]/ModuleList[layer]/BertLayer[4]/BertAttention[attention]/BertSelfAttention[self]/NNCFLinear[value]/ModuleDict[pre_ops]/UpdateWeight[0]/SymmetricQuantizer[op]/symmetric_quantize_0" type="Symmetric_Quantize"><data metatype="unknown" /><output><port id="0"><dim>768</dim><dim>768</dim></port></output></layer><layer id="194" name="BertForSequenceClassification/BertModel[bert]/BertEncoder[encoder]/ModuleList[layer]/BertLayer[4]/BertAttention[attention]/BertSelfAttention[self]/NNCFLinear[value]/SymmetricQuantizer/symmetric_quantize_0" type="Symmetric_Quantize"><data metatype="unknown" /><input><port id="0"><dim>32</dim><dim>128</dim><dim>768</dim></port></input><output><port id="0"><dim>32</dim><dim>128</dim><dim>768</dim></port></output></layer><layer id="195" name="BertForSequenceClassification/BertModel[bert]/BertEncoder[encoder]/ModuleList[layer]/BertLayer[4]/BertAttention[attention]/BertSelfAttention[self]/NNCFLinear[value]/linear_0" type="Linear"><data metatype="LinearOp" /><input><port id="0"><dim>32</dim><dim>128</dim><dim>768</dim></port><port id="1"><dim>768</dim><dim>768</dim></port></input><output><port id="0"><dim>32</dim><dim>128</dim><dim>768</dim></port></output></layer><layer id="196" name="BertForSequenceClassification/BertModel[bert]/BertEncoder[encoder]/ModuleList[layer]/BertLayer[4]/BertAttention[attention]/BertSelfAttention[self]/view_1" type="View"><data metatype="ReshapeOp" /><input><port id="0"><dim>32</dim><dim>128</dim><dim>768</dim></port></input><output><port id="0"><dim>32</dim><dim>128</dim><dim>12</dim><dim>64</dim></port></output></layer><layer id="197" name="BertForSequenceClassification/BertModel[bert]/BertEncoder[encoder]/ModuleList[layer]/BertLayer[4]/BertAttention[attention]/BertSelfAttention[self]/permute_1" type="Permute"><data metatype="TransposeOp" /><input><port id="0"><dim>32</dim><dim>128</dim><dim>12</dim><dim>64</dim></port></input><output><port id="0"><dim>32</dim><dim>12</dim><dim>128</dim><dim>64</dim></port></output></layer><layer id="198" name="BertForSequenceClassification/BertModel[bert]/BertEncoder[encoder]/ModuleList[layer]/BertLayer[4]/BertAttention[attention]/BertSelfAttention[self]/view_2" type="View"><data metatype="ReshapeOp" /><input><port id="0"><dim>32</dim><dim>128</dim><dim>768</dim></port></input><output><port id="0"><dim>32</dim><dim>128</dim><dim>12</dim><dim>64</dim></port></output></layer><layer id="199" name="BertForSequenceClassification/BertModel[bert]/BertEncoder[encoder]/ModuleList[layer]/BertLayer[4]/BertAttention[attention]/BertSelfAttention[self]/permute_2" type="Permute"><data metatype="TransposeOp" /><input><port id="0"><dim>32</dim><dim>128</dim><dim>12</dim><dim>64</dim></port></input><output><port id="0"><dim>32</dim><dim>12</dim><dim>128</dim><dim>64</dim></port></output></layer><layer id="200" name="BertForSequenceClassification/BertModel[bert]/BertEncoder[encoder]/ModuleList[layer]/BertLayer[4]/BertAttention[attention]/BertSelfAttention[self]/transpose_0" type="Transpose"><data metatype="TransposeOp" /><input><port id="0"><dim>32</dim><dim>12</dim><dim>128</dim><dim>64</dim></port></input><output><port id="0"><dim>32</dim><dim>12</dim><dim>64</dim><dim>128</dim></port></output></layer><layer id="201" name="BertForSequenceClassification/BertModel[bert]/BertEncoder[encoder]/ModuleList[layer]/BertLayer[4]/BertAttention[attention]/BertSelfAttention[self]/matmul_0" type="Matmul"><data metatype="MatMulOp" /><input><port id="0"><dim>32</dim><dim>12</dim><dim>128</dim><dim>64</dim></port><port id="1"><dim>32</dim><dim>12</dim><dim>64</dim><dim>128</dim></port></input><output><port id="0"><dim>32</dim><dim>12</dim><dim>128</dim><dim>128</dim></port></output></layer><layer id="202" name="BertForSequenceClassification/BertModel[bert]/BertEncoder[encoder]/ModuleList[layer]/BertLayer[4]/BertAttention[attention]/BertSelfAttention[self]/__truediv___0" type="__Truediv__"><data metatype="DivOp" /><input><port id="0"><dim>32</dim><dim>12</dim><dim>128</dim><dim>128</dim></port></input><output><port id="0"><dim>32</dim><dim>12</dim><dim>128</dim><dim>128</dim></port></output></layer><layer id="203" name="BertForSequenceClassification/BertModel[bert]/BertEncoder[encoder]/ModuleList[layer]/BertLayer[4]/BertAttention[attention]/BertSelfAttention[self]/__add___0" type="__Add__"><data metatype="AddOp" /><input><port id="0"><dim>32</dim><dim>12</dim><dim>128</dim><dim>128</dim></port></input><output><port id="0"><dim>32</dim><dim>12</dim><dim>128</dim><dim>128</dim></port></output></layer><layer id="204" name="BertForSequenceClassification/BertModel[bert]/BertEncoder[encoder]/ModuleList[layer]/BertLayer[4]/BertAttention[attention]/BertSelfAttention[self]/softmax_0" type="Softmax"><data metatype="SoftmaxOp" /><input><port id="0"><dim>32</dim><dim>12</dim><dim>128</dim><dim>128</dim></port></input><output><port id="0"><dim>32</dim><dim>12</dim><dim>128</dim><dim>128</dim></port></output></layer><layer id="205" name="BertForSequenceClassification/BertModel[bert]/BertEncoder[encoder]/ModuleList[layer]/BertLayer[4]/BertAttention[attention]/BertSelfAttention[self]/Dropout[dropout]/dropout_0" type="Dropout"><data metatype="DropoutOp" /><input><port id="0"><dim>32</dim><dim>12</dim><dim>128</dim><dim>128</dim></port></input><output><port id="0"><dim>32</dim><dim>12</dim><dim>128</dim><dim>128</dim></port></output></layer><layer id="206" name="BertForSequenceClassification/BertModel[bert]/BertEncoder[encoder]/ModuleList[layer]/BertLayer[4]/BertAttention[attention]/BertSelfAttention[self]/matmul_1" type="Matmul"><data metatype="MatMulOp" /><input><port id="0"><dim>32</dim><dim>12</dim><dim>128</dim><dim>128</dim></port><port id="1"><dim>32</dim><dim>12</dim><dim>128</dim><dim>64</dim></port></input><output><port id="0"><dim>32</dim><dim>12</dim><dim>128</dim><dim>64</dim></port></output></layer><layer id="207" name="BertForSequenceClassification/BertModel[bert]/BertEncoder[encoder]/ModuleList[layer]/BertLayer[4]/BertAttention[attention]/BertSelfAttention[self]/SymmetricQuantizer/symmetric_quantize_0" type="Symmetric_Quantize"><data metatype="unknown" /><input><port id="0"><dim>32</dim><dim>12</dim><dim>128</dim><dim>64</dim></port></input><output><port id="0"><dim>32</dim><dim>12</dim><dim>128</dim><dim>64</dim></port></output></layer><layer id="208" name="BertForSequenceClassification/BertModel[bert]/BertEncoder[encoder]/ModuleList[layer]/BertLayer[4]/BertAttention[attention]/BertSelfAttention[self]/permute_3" type="Permute"><data metatype="TransposeOp" /><input><port id="0"><dim>32</dim><dim>12</dim><dim>128</dim><dim>64</dim></port></input><output><port id="0"><dim>32</dim><dim>128</dim><dim>12</dim><dim>64</dim></port></output></layer><layer id="209" name="BertForSequenceClassification/BertModel[bert]/BertEncoder[encoder]/ModuleList[layer]/BertLayer[4]/BertAttention[attention]/BertSelfAttention[self]/contiguous_0" type="Contiguous"><data metatype="noop" /><input><port id="0"><dim>32</dim><dim>128</dim><dim>12</dim><dim>64</dim></port></input><output><port id="0"><dim>32</dim><dim>128</dim><dim>12</dim><dim>64</dim></port></output></layer><layer id="210" name="BertForSequenceClassification/BertModel[bert]/BertEncoder[encoder]/ModuleList[layer]/BertLayer[4]/BertAttention[attention]/BertSelfAttention[self]/view_3" type="View"><data metatype="ReshapeOp" /><input><port id="0"><dim>32</dim><dim>128</dim><dim>12</dim><dim>64</dim></port></input><output><port id="0"><dim>32</dim><dim>128</dim><dim>768</dim></port></output></layer><layer id="211" name="BertForSequenceClassification/BertModel[bert]/BertEncoder[encoder]/ModuleList[layer]/BertLayer[4]/BertAttention[attention]/BertSelfOutput[output]/NNCFLinear[dense]/ModuleDict[pre_ops]/UpdateWeight[0]/SymmetricQuantizer[op]/symmetric_quantize_0" type="Symmetric_Quantize"><data metatype="unknown" /><output><port id="0"><dim>768</dim><dim>768</dim></port></output></layer><layer id="212" name="BertForSequenceClassification/BertModel[bert]/BertEncoder[encoder]/ModuleList[layer]/BertLayer[4]/BertAttention[attention]/BertSelfOutput[output]/NNCFLinear[dense]/linear_0" type="Linear"><data metatype="LinearOp" /><input><port id="0"><dim>32</dim><dim>128</dim><dim>768</dim></port><port id="1"><dim>768</dim><dim>768</dim></port></input><output><port id="0"><dim>32</dim><dim>128</dim><dim>768</dim></port></output></layer><layer id="213" name="BertForSequenceClassification/BertModel[bert]/BertEncoder[encoder]/ModuleList[layer]/BertLayer[4]/BertAttention[attention]/BertSelfOutput[output]/Dropout[dropout]/dropout_0" type="Dropout"><data metatype="DropoutOp" /><input><port id="0"><dim>32</dim><dim>128</dim><dim>768</dim></port></input><output><port id="0"><dim>32</dim><dim>128</dim><dim>768</dim></port></output></layer><layer id="214" name="BertForSequenceClassification/BertModel[bert]/BertEncoder[encoder]/ModuleList[layer]/BertLayer[4]/BertAttention[attention]/BertSelfOutput[output]/__add___0" type="__Add__"><data metatype="AddOp" /><input><port id="0"><dim>32</dim><dim>128</dim><dim>768</dim></port><port id="1"><dim>32</dim><dim>128</dim><dim>768</dim></port></input><output><port id="0"><dim>32</dim><dim>128</dim><dim>768</dim></port></output></layer><layer id="215" name="BertForSequenceClassification/BertModel[bert]/BertEncoder[encoder]/ModuleList[layer]/BertLayer[4]/BertAttention[attention]/BertSelfOutput[output]/NNCFLayerNorm[LayerNorm]/layer_norm_0" type="Layer_Norm"><data metatype="LayerNormOp" /><input><port id="0"><dim>32</dim><dim>128</dim><dim>768</dim></port></input><output><port id="0"><dim>32</dim><dim>128</dim><dim>768</dim></port><port id="0"><dim>32</dim><dim>128</dim><dim>768</dim></port></output></layer><layer id="216" name="BertForSequenceClassification/BertModel[bert]/BertEncoder[encoder]/ModuleList[layer]/BertLayer[4]/BertIntermediate[intermediate]/NNCFLinear[dense]/ModuleDict[pre_ops]/UpdateWeight[0]/SymmetricQuantizer[op]/symmetric_quantize_0" type="Symmetric_Quantize"><data metatype="unknown" /><output><port id="0"><dim>3072</dim><dim>768</dim></port></output></layer><layer id="217" name="BertForSequenceClassification/BertModel[bert]/BertEncoder[encoder]/ModuleList[layer]/BertLayer[4]/BertIntermediate[intermediate]/NNCFLinear[dense]/SymmetricQuantizer/symmetric_quantize_0" type="Symmetric_Quantize"><data metatype="unknown" /><input><port id="0"><dim>32</dim><dim>128</dim><dim>768</dim></port></input><output><port id="0"><dim>32</dim><dim>128</dim><dim>768</dim></port></output></layer><layer id="218" name="BertForSequenceClassification/BertModel[bert]/BertEncoder[encoder]/ModuleList[layer]/BertLayer[4]/BertIntermediate[intermediate]/NNCFLinear[dense]/linear_0" type="Linear"><data metatype="LinearOp" /><input><port id="0"><dim>32</dim><dim>128</dim><dim>768</dim></port><port id="1"><dim>3072</dim><dim>768</dim></port></input><output><port id="0"><dim>32</dim><dim>128</dim><dim>3072</dim></port></output></layer><layer id="219" name="BertForSequenceClassification/BertModel[bert]/BertEncoder[encoder]/ModuleList[layer]/BertLayer[4]/BertIntermediate[intermediate]/GELUActivation[intermediate_act_fn]/gelu_0" type="Gelu"><data metatype="GeluOp" /><input><port id="0"><dim>32</dim><dim>128</dim><dim>3072</dim></port></input><output><port id="0"><dim>32</dim><dim>128</dim><dim>3072</dim></port></output></layer><layer id="220" name="BertForSequenceClassification/BertModel[bert]/BertEncoder[encoder]/ModuleList[layer]/BertLayer[4]/BertIntermediate[intermediate]/GELUActivation[intermediate_act_fn]/SymmetricQuantizer/symmetric_quantize_0" type="Symmetric_Quantize"><data metatype="unknown" /><input><port id="0"><dim>32</dim><dim>128</dim><dim>3072</dim></port></input><output><port id="0"><dim>32</dim><dim>128</dim><dim>3072</dim></port></output></layer><layer id="221" name="BertForSequenceClassification/BertModel[bert]/BertEncoder[encoder]/ModuleList[layer]/BertLayer[4]/BertOutput[output]/NNCFLinear[dense]/ModuleDict[pre_ops]/UpdateWeight[0]/SymmetricQuantizer[op]/symmetric_quantize_0" type="Symmetric_Quantize"><data metatype="unknown" /><output><port id="0"><dim>768</dim><dim>3072</dim></port></output></layer><layer id="222" name="BertForSequenceClassification/BertModel[bert]/BertEncoder[encoder]/ModuleList[layer]/BertLayer[4]/BertOutput[output]/NNCFLinear[dense]/linear_0" type="Linear"><data metatype="LinearOp" /><input><port id="0"><dim>32</dim><dim>128</dim><dim>3072</dim></port><port id="1"><dim>768</dim><dim>3072</dim></port></input><output><port id="0"><dim>32</dim><dim>128</dim><dim>768</dim></port></output></layer><layer id="223" name="BertForSequenceClassification/BertModel[bert]/BertEncoder[encoder]/ModuleList[layer]/BertLayer[4]/BertOutput[output]/Dropout[dropout]/dropout_0" type="Dropout"><data metatype="DropoutOp" /><input><port id="0"><dim>32</dim><dim>128</dim><dim>768</dim></port></input><output><port id="0"><dim>32</dim><dim>128</dim><dim>768</dim></port></output></layer><layer id="224" name="BertForSequenceClassification/BertModel[bert]/BertEncoder[encoder]/ModuleList[layer]/BertLayer[4]/BertOutput[output]/__add___0" type="__Add__"><data metatype="AddOp" /><input><port id="0"><dim>32</dim><dim>128</dim><dim>768</dim></port><port id="1"><dim>32</dim><dim>128</dim><dim>768</dim></port></input><output><port id="0"><dim>32</dim><dim>128</dim><dim>768</dim></port></output></layer><layer id="225" name="BertForSequenceClassification/BertModel[bert]/BertEncoder[encoder]/ModuleList[layer]/BertLayer[4]/BertOutput[output]/NNCFLayerNorm[LayerNorm]/layer_norm_0" type="Layer_Norm"><data metatype="LayerNormOp" /><input><port id="0"><dim>32</dim><dim>128</dim><dim>768</dim></port></input><output><port id="0"><dim>32</dim><dim>128</dim><dim>768</dim></port><port id="0"><dim>32</dim><dim>128</dim><dim>768</dim></port><port id="0"><dim>32</dim><dim>128</dim><dim>768</dim></port><port id="0"><dim>32</dim><dim>128</dim><dim>768</dim></port></output></layer><layer id="226" name="BertForSequenceClassification/BertModel[bert]/BertEncoder[encoder]/ModuleList[layer]/BertLayer[5]/BertAttention[attention]/BertSelfAttention[self]/NNCFLinear[query]/ModuleDict[pre_ops]/UpdateWeight[0]/SymmetricQuantizer[op]/symmetric_quantize_0" type="Symmetric_Quantize"><data metatype="unknown" /><output><port id="0"><dim>768</dim><dim>768</dim></port></output></layer><layer id="227" name="BertForSequenceClassification/BertModel[bert]/BertEncoder[encoder]/ModuleList[layer]/BertLayer[5]/BertAttention[attention]/BertSelfAttention[self]/NNCFLinear[query]/SymmetricQuantizer/symmetric_quantize_0" type="Symmetric_Quantize"><data metatype="unknown" /><input><port id="0"><dim>32</dim><dim>128</dim><dim>768</dim></port></input><output><port id="0"><dim>32</dim><dim>128</dim><dim>768</dim></port></output></layer><layer id="228" name="BertForSequenceClassification/BertModel[bert]/BertEncoder[encoder]/ModuleList[layer]/BertLayer[5]/BertAttention[attention]/BertSelfAttention[self]/NNCFLinear[query]/linear_0" type="Linear"><data metatype="LinearOp" /><input><port id="0"><dim>32</dim><dim>128</dim><dim>768</dim></port><port id="1"><dim>768</dim><dim>768</dim></port></input><output><port id="0"><dim>32</dim><dim>128</dim><dim>768</dim></port></output></layer><layer id="229" name="BertForSequenceClassification/BertModel[bert]/BertEncoder[encoder]/ModuleList[layer]/BertLayer[5]/BertAttention[attention]/BertSelfAttention[self]/NNCFLinear[query]/SymmetricQuantizer/symmetric_quantize_1" type="Symmetric_Quantize"><data metatype="unknown" /><input><port id="0"><dim>32</dim><dim>128</dim><dim>768</dim></port></input><output><port id="0"><dim>32</dim><dim>128</dim><dim>768</dim></port></output></layer><layer id="230" name="BertForSequenceClassification/BertModel[bert]/BertEncoder[encoder]/ModuleList[layer]/BertLayer[5]/BertAttention[attention]/BertSelfAttention[self]/NNCFLinear[key]/ModuleDict[pre_ops]/UpdateWeight[0]/SymmetricQuantizer[op]/symmetric_quantize_0" type="Symmetric_Quantize"><data metatype="unknown" /><output><port id="0"><dim>768</dim><dim>768</dim></port></output></layer><layer id="231" name="BertForSequenceClassification/BertModel[bert]/BertEncoder[encoder]/ModuleList[layer]/BertLayer[5]/BertAttention[attention]/BertSelfAttention[self]/NNCFLinear[key]/SymmetricQuantizer/symmetric_quantize_0" type="Symmetric_Quantize"><data metatype="unknown" /><input><port id="0"><dim>32</dim><dim>128</dim><dim>768</dim></port></input><output><port id="0"><dim>32</dim><dim>128</dim><dim>768</dim></port></output></layer><layer id="232" name="BertForSequenceClassification/BertModel[bert]/BertEncoder[encoder]/ModuleList[layer]/BertLayer[5]/BertAttention[attention]/BertSelfAttention[self]/NNCFLinear[key]/linear_0" type="Linear"><data metatype="LinearOp" /><input><port id="0"><dim>32</dim><dim>128</dim><dim>768</dim></port><port id="1"><dim>768</dim><dim>768</dim></port></input><output><port id="0"><dim>32</dim><dim>128</dim><dim>768</dim></port></output></layer><layer id="233" name="BertForSequenceClassification/BertModel[bert]/BertEncoder[encoder]/ModuleList[layer]/BertLayer[5]/BertAttention[attention]/BertSelfAttention[self]/NNCFLinear[key]/SymmetricQuantizer/symmetric_quantize_1" type="Symmetric_Quantize"><data metatype="unknown" /><input><port id="0"><dim>32</dim><dim>128</dim><dim>768</dim></port></input><output><port id="0"><dim>32</dim><dim>128</dim><dim>768</dim></port></output></layer><layer id="234" name="BertForSequenceClassification/BertModel[bert]/BertEncoder[encoder]/ModuleList[layer]/BertLayer[5]/BertAttention[attention]/BertSelfAttention[self]/view_0" type="View"><data metatype="ReshapeOp" /><input><port id="0"><dim>32</dim><dim>128</dim><dim>768</dim></port></input><output><port id="0"><dim>32</dim><dim>128</dim><dim>12</dim><dim>64</dim></port></output></layer><layer id="235" name="BertForSequenceClassification/BertModel[bert]/BertEncoder[encoder]/ModuleList[layer]/BertLayer[5]/BertAttention[attention]/BertSelfAttention[self]/permute_0" type="Permute"><data metatype="TransposeOp" /><input><port id="0"><dim>32</dim><dim>128</dim><dim>12</dim><dim>64</dim></port></input><output><port id="0"><dim>32</dim><dim>12</dim><dim>128</dim><dim>64</dim></port></output></layer><layer id="236" name="BertForSequenceClassification/BertModel[bert]/BertEncoder[encoder]/ModuleList[layer]/BertLayer[5]/BertAttention[attention]/BertSelfAttention[self]/NNCFLinear[value]/ModuleDict[pre_ops]/UpdateWeight[0]/SymmetricQuantizer[op]/symmetric_quantize_0" type="Symmetric_Quantize"><data metatype="unknown" /><output><port id="0"><dim>768</dim><dim>768</dim></port></output></layer><layer id="237" name="BertForSequenceClassification/BertModel[bert]/BertEncoder[encoder]/ModuleList[layer]/BertLayer[5]/BertAttention[attention]/BertSelfAttention[self]/NNCFLinear[value]/SymmetricQuantizer/symmetric_quantize_0" type="Symmetric_Quantize"><data metatype="unknown" /><input><port id="0"><dim>32</dim><dim>128</dim><dim>768</dim></port></input><output><port id="0"><dim>32</dim><dim>128</dim><dim>768</dim></port></output></layer><layer id="238" name="BertForSequenceClassification/BertModel[bert]/BertEncoder[encoder]/ModuleList[layer]/BertLayer[5]/BertAttention[attention]/BertSelfAttention[self]/NNCFLinear[value]/linear_0" type="Linear"><data metatype="LinearOp" /><input><port id="0"><dim>32</dim><dim>128</dim><dim>768</dim></port><port id="1"><dim>768</dim><dim>768</dim></port></input><output><port id="0"><dim>32</dim><dim>128</dim><dim>768</dim></port></output></layer><layer id="239" name="BertForSequenceClassification/BertModel[bert]/BertEncoder[encoder]/ModuleList[layer]/BertLayer[5]/BertAttention[attention]/BertSelfAttention[self]/view_1" type="View"><data metatype="ReshapeOp" /><input><port id="0"><dim>32</dim><dim>128</dim><dim>768</dim></port></input><output><port id="0"><dim>32</dim><dim>128</dim><dim>12</dim><dim>64</dim></port></output></layer><layer id="240" name="BertForSequenceClassification/BertModel[bert]/BertEncoder[encoder]/ModuleList[layer]/BertLayer[5]/BertAttention[attention]/BertSelfAttention[self]/permute_1" type="Permute"><data metatype="TransposeOp" /><input><port id="0"><dim>32</dim><dim>128</dim><dim>12</dim><dim>64</dim></port></input><output><port id="0"><dim>32</dim><dim>12</dim><dim>128</dim><dim>64</dim></port></output></layer><layer id="241" name="BertForSequenceClassification/BertModel[bert]/BertEncoder[encoder]/ModuleList[layer]/BertLayer[5]/BertAttention[attention]/BertSelfAttention[self]/view_2" type="View"><data metatype="ReshapeOp" /><input><port id="0"><dim>32</dim><dim>128</dim><dim>768</dim></port></input><output><port id="0"><dim>32</dim><dim>128</dim><dim>12</dim><dim>64</dim></port></output></layer><layer id="242" name="BertForSequenceClassification/BertModel[bert]/BertEncoder[encoder]/ModuleList[layer]/BertLayer[5]/BertAttention[attention]/BertSelfAttention[self]/permute_2" type="Permute"><data metatype="TransposeOp" /><input><port id="0"><dim>32</dim><dim>128</dim><dim>12</dim><dim>64</dim></port></input><output><port id="0"><dim>32</dim><dim>12</dim><dim>128</dim><dim>64</dim></port></output></layer><layer id="243" name="BertForSequenceClassification/BertModel[bert]/BertEncoder[encoder]/ModuleList[layer]/BertLayer[5]/BertAttention[attention]/BertSelfAttention[self]/transpose_0" type="Transpose"><data metatype="TransposeOp" /><input><port id="0"><dim>32</dim><dim>12</dim><dim>128</dim><dim>64</dim></port></input><output><port id="0"><dim>32</dim><dim>12</dim><dim>64</dim><dim>128</dim></port></output></layer><layer id="244" name="BertForSequenceClassification/BertModel[bert]/BertEncoder[encoder]/ModuleList[layer]/BertLayer[5]/BertAttention[attention]/BertSelfAttention[self]/matmul_0" type="Matmul"><data metatype="MatMulOp" /><input><port id="0"><dim>32</dim><dim>12</dim><dim>128</dim><dim>64</dim></port><port id="1"><dim>32</dim><dim>12</dim><dim>64</dim><dim>128</dim></port></input><output><port id="0"><dim>32</dim><dim>12</dim><dim>128</dim><dim>128</dim></port></output></layer><layer id="245" name="BertForSequenceClassification/BertModel[bert]/BertEncoder[encoder]/ModuleList[layer]/BertLayer[5]/BertAttention[attention]/BertSelfAttention[self]/__truediv___0" type="__Truediv__"><data metatype="DivOp" /><input><port id="0"><dim>32</dim><dim>12</dim><dim>128</dim><dim>128</dim></port></input><output><port id="0"><dim>32</dim><dim>12</dim><dim>128</dim><dim>128</dim></port></output></layer><layer id="246" name="BertForSequenceClassification/BertModel[bert]/BertEncoder[encoder]/ModuleList[layer]/BertLayer[5]/BertAttention[attention]/BertSelfAttention[self]/__add___0" type="__Add__"><data metatype="AddOp" /><input><port id="0"><dim>32</dim><dim>12</dim><dim>128</dim><dim>128</dim></port></input><output><port id="0"><dim>32</dim><dim>12</dim><dim>128</dim><dim>128</dim></port></output></layer><layer id="247" name="BertForSequenceClassification/BertModel[bert]/BertEncoder[encoder]/ModuleList[layer]/BertLayer[5]/BertAttention[attention]/BertSelfAttention[self]/softmax_0" type="Softmax"><data metatype="SoftmaxOp" /><input><port id="0"><dim>32</dim><dim>12</dim><dim>128</dim><dim>128</dim></port></input><output><port id="0"><dim>32</dim><dim>12</dim><dim>128</dim><dim>128</dim></port></output></layer><layer id="248" name="BertForSequenceClassification/BertModel[bert]/BertEncoder[encoder]/ModuleList[layer]/BertLayer[5]/BertAttention[attention]/BertSelfAttention[self]/Dropout[dropout]/dropout_0" type="Dropout"><data metatype="DropoutOp" /><input><port id="0"><dim>32</dim><dim>12</dim><dim>128</dim><dim>128</dim></port></input><output><port id="0"><dim>32</dim><dim>12</dim><dim>128</dim><dim>128</dim></port></output></layer><layer id="249" name="BertForSequenceClassification/BertModel[bert]/BertEncoder[encoder]/ModuleList[layer]/BertLayer[5]/BertAttention[attention]/BertSelfAttention[self]/matmul_1" type="Matmul"><data metatype="MatMulOp" /><input><port id="0"><dim>32</dim><dim>12</dim><dim>128</dim><dim>128</dim></port><port id="1"><dim>32</dim><dim>12</dim><dim>128</dim><dim>64</dim></port></input><output><port id="0"><dim>32</dim><dim>12</dim><dim>128</dim><dim>64</dim></port></output></layer><layer id="250" name="BertForSequenceClassification/BertModel[bert]/BertEncoder[encoder]/ModuleList[layer]/BertLayer[5]/BertAttention[attention]/BertSelfAttention[self]/SymmetricQuantizer/symmetric_quantize_0" type="Symmetric_Quantize"><data metatype="unknown" /><input><port id="0"><dim>32</dim><dim>12</dim><dim>128</dim><dim>64</dim></port></input><output><port id="0"><dim>32</dim><dim>12</dim><dim>128</dim><dim>64</dim></port></output></layer><layer id="251" name="BertForSequenceClassification/BertModel[bert]/BertEncoder[encoder]/ModuleList[layer]/BertLayer[5]/BertAttention[attention]/BertSelfAttention[self]/permute_3" type="Permute"><data metatype="TransposeOp" /><input><port id="0"><dim>32</dim><dim>12</dim><dim>128</dim><dim>64</dim></port></input><output><port id="0"><dim>32</dim><dim>128</dim><dim>12</dim><dim>64</dim></port></output></layer><layer id="252" name="BertForSequenceClassification/BertModel[bert]/BertEncoder[encoder]/ModuleList[layer]/BertLayer[5]/BertAttention[attention]/BertSelfAttention[self]/contiguous_0" type="Contiguous"><data metatype="noop" /><input><port id="0"><dim>32</dim><dim>128</dim><dim>12</dim><dim>64</dim></port></input><output><port id="0"><dim>32</dim><dim>128</dim><dim>12</dim><dim>64</dim></port></output></layer><layer id="253" name="BertForSequenceClassification/BertModel[bert]/BertEncoder[encoder]/ModuleList[layer]/BertLayer[5]/BertAttention[attention]/BertSelfAttention[self]/view_3" type="View"><data metatype="ReshapeOp" /><input><port id="0"><dim>32</dim><dim>128</dim><dim>12</dim><dim>64</dim></port></input><output><port id="0"><dim>32</dim><dim>128</dim><dim>768</dim></port></output></layer><layer id="254" name="BertForSequenceClassification/BertModel[bert]/BertEncoder[encoder]/ModuleList[layer]/BertLayer[5]/BertAttention[attention]/BertSelfOutput[output]/NNCFLinear[dense]/ModuleDict[pre_ops]/UpdateWeight[0]/SymmetricQuantizer[op]/symmetric_quantize_0" type="Symmetric_Quantize"><data metatype="unknown" /><output><port id="0"><dim>768</dim><dim>768</dim></port></output></layer><layer id="255" name="BertForSequenceClassification/BertModel[bert]/BertEncoder[encoder]/ModuleList[layer]/BertLayer[5]/BertAttention[attention]/BertSelfOutput[output]/NNCFLinear[dense]/linear_0" type="Linear"><data metatype="LinearOp" /><input><port id="0"><dim>32</dim><dim>128</dim><dim>768</dim></port><port id="1"><dim>768</dim><dim>768</dim></port></input><output><port id="0"><dim>32</dim><dim>128</dim><dim>768</dim></port></output></layer><layer id="256" name="BertForSequenceClassification/BertModel[bert]/BertEncoder[encoder]/ModuleList[layer]/BertLayer[5]/BertAttention[attention]/BertSelfOutput[output]/Dropout[dropout]/dropout_0" type="Dropout"><data metatype="DropoutOp" /><input><port id="0"><dim>32</dim><dim>128</dim><dim>768</dim></port></input><output><port id="0"><dim>32</dim><dim>128</dim><dim>768</dim></port></output></layer><layer id="257" name="BertForSequenceClassification/BertModel[bert]/BertEncoder[encoder]/ModuleList[layer]/BertLayer[5]/BertAttention[attention]/BertSelfOutput[output]/__add___0" type="__Add__"><data metatype="AddOp" /><input><port id="0"><dim>32</dim><dim>128</dim><dim>768</dim></port><port id="1"><dim>32</dim><dim>128</dim><dim>768</dim></port></input><output><port id="0"><dim>32</dim><dim>128</dim><dim>768</dim></port></output></layer><layer id="258" name="BertForSequenceClassification/BertModel[bert]/BertEncoder[encoder]/ModuleList[layer]/BertLayer[5]/BertAttention[attention]/BertSelfOutput[output]/NNCFLayerNorm[LayerNorm]/layer_norm_0" type="Layer_Norm"><data metatype="LayerNormOp" /><input><port id="0"><dim>32</dim><dim>128</dim><dim>768</dim></port></input><output><port id="0"><dim>32</dim><dim>128</dim><dim>768</dim></port><port id="0"><dim>32</dim><dim>128</dim><dim>768</dim></port></output></layer><layer id="259" name="BertForSequenceClassification/BertModel[bert]/BertEncoder[encoder]/ModuleList[layer]/BertLayer[5]/BertIntermediate[intermediate]/NNCFLinear[dense]/ModuleDict[pre_ops]/UpdateWeight[0]/SymmetricQuantizer[op]/symmetric_quantize_0" type="Symmetric_Quantize"><data metatype="unknown" /><output><port id="0"><dim>3072</dim><dim>768</dim></port></output></layer><layer id="260" name="BertForSequenceClassification/BertModel[bert]/BertEncoder[encoder]/ModuleList[layer]/BertLayer[5]/BertIntermediate[intermediate]/NNCFLinear[dense]/SymmetricQuantizer/symmetric_quantize_0" type="Symmetric_Quantize"><data metatype="unknown" /><input><port id="0"><dim>32</dim><dim>128</dim><dim>768</dim></port></input><output><port id="0"><dim>32</dim><dim>128</dim><dim>768</dim></port></output></layer><layer id="261" name="BertForSequenceClassification/BertModel[bert]/BertEncoder[encoder]/ModuleList[layer]/BertLayer[5]/BertIntermediate[intermediate]/NNCFLinear[dense]/linear_0" type="Linear"><data metatype="LinearOp" /><input><port id="0"><dim>32</dim><dim>128</dim><dim>768</dim></port><port id="1"><dim>3072</dim><dim>768</dim></port></input><output><port id="0"><dim>32</dim><dim>128</dim><dim>3072</dim></port></output></layer><layer id="262" name="BertForSequenceClassification/BertModel[bert]/BertEncoder[encoder]/ModuleList[layer]/BertLayer[5]/BertIntermediate[intermediate]/GELUActivation[intermediate_act_fn]/gelu_0" type="Gelu"><data metatype="GeluOp" /><input><port id="0"><dim>32</dim><dim>128</dim><dim>3072</dim></port></input><output><port id="0"><dim>32</dim><dim>128</dim><dim>3072</dim></port></output></layer><layer id="263" name="BertForSequenceClassification/BertModel[bert]/BertEncoder[encoder]/ModuleList[layer]/BertLayer[5]/BertIntermediate[intermediate]/GELUActivation[intermediate_act_fn]/SymmetricQuantizer/symmetric_quantize_0" type="Symmetric_Quantize"><data metatype="unknown" /><input><port id="0"><dim>32</dim><dim>128</dim><dim>3072</dim></port></input><output><port id="0"><dim>32</dim><dim>128</dim><dim>3072</dim></port></output></layer><layer id="264" name="BertForSequenceClassification/BertModel[bert]/BertEncoder[encoder]/ModuleList[layer]/BertLayer[5]/BertOutput[output]/NNCFLinear[dense]/ModuleDict[pre_ops]/UpdateWeight[0]/SymmetricQuantizer[op]/symmetric_quantize_0" type="Symmetric_Quantize"><data metatype="unknown" /><output><port id="0"><dim>768</dim><dim>3072</dim></port></output></layer><layer id="265" name="BertForSequenceClassification/BertModel[bert]/BertEncoder[encoder]/ModuleList[layer]/BertLayer[5]/BertOutput[output]/NNCFLinear[dense]/linear_0" type="Linear"><data metatype="LinearOp" /><input><port id="0"><dim>32</dim><dim>128</dim><dim>3072</dim></port><port id="1"><dim>768</dim><dim>3072</dim></port></input><output><port id="0"><dim>32</dim><dim>128</dim><dim>768</dim></port></output></layer><layer id="266" name="BertForSequenceClassification/BertModel[bert]/BertEncoder[encoder]/ModuleList[layer]/BertLayer[5]/BertOutput[output]/Dropout[dropout]/dropout_0" type="Dropout"><data metatype="DropoutOp" /><input><port id="0"><dim>32</dim><dim>128</dim><dim>768</dim></port></input><output><port id="0"><dim>32</dim><dim>128</dim><dim>768</dim></port></output></layer><layer id="267" name="BertForSequenceClassification/BertModel[bert]/BertEncoder[encoder]/ModuleList[layer]/BertLayer[5]/BertOutput[output]/__add___0" type="__Add__"><data metatype="AddOp" /><input><port id="0"><dim>32</dim><dim>128</dim><dim>768</dim></port><port id="1"><dim>32</dim><dim>128</dim><dim>768</dim></port></input><output><port id="0"><dim>32</dim><dim>128</dim><dim>768</dim></port></output></layer><layer id="268" name="BertForSequenceClassification/BertModel[bert]/BertEncoder[encoder]/ModuleList[layer]/BertLayer[5]/BertOutput[output]/NNCFLayerNorm[LayerNorm]/layer_norm_0" type="Layer_Norm"><data metatype="LayerNormOp" /><input><port id="0"><dim>32</dim><dim>128</dim><dim>768</dim></port></input><output><port id="0"><dim>32</dim><dim>128</dim><dim>768</dim></port><port id="0"><dim>32</dim><dim>128</dim><dim>768</dim></port><port id="0"><dim>32</dim><dim>128</dim><dim>768</dim></port><port id="0"><dim>32</dim><dim>128</dim><dim>768</dim></port></output></layer><layer id="269" name="BertForSequenceClassification/BertModel[bert]/BertEncoder[encoder]/ModuleList[layer]/BertLayer[6]/BertAttention[attention]/BertSelfAttention[self]/NNCFLinear[query]/ModuleDict[pre_ops]/UpdateWeight[0]/SymmetricQuantizer[op]/symmetric_quantize_0" type="Symmetric_Quantize"><data metatype="unknown" /><output><port id="0"><dim>768</dim><dim>768</dim></port></output></layer><layer id="270" name="BertForSequenceClassification/BertModel[bert]/BertEncoder[encoder]/ModuleList[layer]/BertLayer[6]/BertAttention[attention]/BertSelfAttention[self]/NNCFLinear[query]/SymmetricQuantizer/symmetric_quantize_0" type="Symmetric_Quantize"><data metatype="unknown" /><input><port id="0"><dim>32</dim><dim>128</dim><dim>768</dim></port></input><output><port id="0"><dim>32</dim><dim>128</dim><dim>768</dim></port></output></layer><layer id="271" name="BertForSequenceClassification/BertModel[bert]/BertEncoder[encoder]/ModuleList[layer]/BertLayer[6]/BertAttention[attention]/BertSelfAttention[self]/NNCFLinear[query]/linear_0" type="Linear"><data metatype="LinearOp" /><input><port id="0"><dim>32</dim><dim>128</dim><dim>768</dim></port><port id="1"><dim>768</dim><dim>768</dim></port></input><output><port id="0"><dim>32</dim><dim>128</dim><dim>768</dim></port></output></layer><layer id="272" name="BertForSequenceClassification/BertModel[bert]/BertEncoder[encoder]/ModuleList[layer]/BertLayer[6]/BertAttention[attention]/BertSelfAttention[self]/NNCFLinear[query]/SymmetricQuantizer/symmetric_quantize_1" type="Symmetric_Quantize"><data metatype="unknown" /><input><port id="0"><dim>32</dim><dim>128</dim><dim>768</dim></port></input><output><port id="0"><dim>32</dim><dim>128</dim><dim>768</dim></port></output></layer><layer id="273" name="BertForSequenceClassification/BertModel[bert]/BertEncoder[encoder]/ModuleList[layer]/BertLayer[6]/BertAttention[attention]/BertSelfAttention[self]/NNCFLinear[key]/ModuleDict[pre_ops]/UpdateWeight[0]/SymmetricQuantizer[op]/symmetric_quantize_0" type="Symmetric_Quantize"><data metatype="unknown" /><output><port id="0"><dim>768</dim><dim>768</dim></port></output></layer><layer id="274" name="BertForSequenceClassification/BertModel[bert]/BertEncoder[encoder]/ModuleList[layer]/BertLayer[6]/BertAttention[attention]/BertSelfAttention[self]/NNCFLinear[key]/SymmetricQuantizer/symmetric_quantize_0" type="Symmetric_Quantize"><data metatype="unknown" /><input><port id="0"><dim>32</dim><dim>128</dim><dim>768</dim></port></input><output><port id="0"><dim>32</dim><dim>128</dim><dim>768</dim></port></output></layer><layer id="275" name="BertForSequenceClassification/BertModel[bert]/BertEncoder[encoder]/ModuleList[layer]/BertLayer[6]/BertAttention[attention]/BertSelfAttention[self]/NNCFLinear[key]/linear_0" type="Linear"><data metatype="LinearOp" /><input><port id="0"><dim>32</dim><dim>128</dim><dim>768</dim></port><port id="1"><dim>768</dim><dim>768</dim></port></input><output><port id="0"><dim>32</dim><dim>128</dim><dim>768</dim></port></output></layer><layer id="276" name="BertForSequenceClassification/BertModel[bert]/BertEncoder[encoder]/ModuleList[layer]/BertLayer[6]/BertAttention[attention]/BertSelfAttention[self]/NNCFLinear[key]/SymmetricQuantizer/symmetric_quantize_1" type="Symmetric_Quantize"><data metatype="unknown" /><input><port id="0"><dim>32</dim><dim>128</dim><dim>768</dim></port></input><output><port id="0"><dim>32</dim><dim>128</dim><dim>768</dim></port></output></layer><layer id="277" name="BertForSequenceClassification/BertModel[bert]/BertEncoder[encoder]/ModuleList[layer]/BertLayer[6]/BertAttention[attention]/BertSelfAttention[self]/view_0" type="View"><data metatype="ReshapeOp" /><input><port id="0"><dim>32</dim><dim>128</dim><dim>768</dim></port></input><output><port id="0"><dim>32</dim><dim>128</dim><dim>12</dim><dim>64</dim></port></output></layer><layer id="278" name="BertForSequenceClassification/BertModel[bert]/BertEncoder[encoder]/ModuleList[layer]/BertLayer[6]/BertAttention[attention]/BertSelfAttention[self]/permute_0" type="Permute"><data metatype="TransposeOp" /><input><port id="0"><dim>32</dim><dim>128</dim><dim>12</dim><dim>64</dim></port></input><output><port id="0"><dim>32</dim><dim>12</dim><dim>128</dim><dim>64</dim></port></output></layer><layer id="279" name="BertForSequenceClassification/BertModel[bert]/BertEncoder[encoder]/ModuleList[layer]/BertLayer[6]/BertAttention[attention]/BertSelfAttention[self]/NNCFLinear[value]/ModuleDict[pre_ops]/UpdateWeight[0]/SymmetricQuantizer[op]/symmetric_quantize_0" type="Symmetric_Quantize"><data metatype="unknown" /><output><port id="0"><dim>768</dim><dim>768</dim></port></output></layer><layer id="280" name="BertForSequenceClassification/BertModel[bert]/BertEncoder[encoder]/ModuleList[layer]/BertLayer[6]/BertAttention[attention]/BertSelfAttention[self]/NNCFLinear[value]/SymmetricQuantizer/symmetric_quantize_0" type="Symmetric_Quantize"><data metatype="unknown" /><input><port id="0"><dim>32</dim><dim>128</dim><dim>768</dim></port></input><output><port id="0"><dim>32</dim><dim>128</dim><dim>768</dim></port></output></layer><layer id="281" name="BertForSequenceClassification/BertModel[bert]/BertEncoder[encoder]/ModuleList[layer]/BertLayer[6]/BertAttention[attention]/BertSelfAttention[self]/NNCFLinear[value]/linear_0" type="Linear"><data metatype="LinearOp" /><input><port id="0"><dim>32</dim><dim>128</dim><dim>768</dim></port><port id="1"><dim>768</dim><dim>768</dim></port></input><output><port id="0"><dim>32</dim><dim>128</dim><dim>768</dim></port></output></layer><layer id="282" name="BertForSequenceClassification/BertModel[bert]/BertEncoder[encoder]/ModuleList[layer]/BertLayer[6]/BertAttention[attention]/BertSelfAttention[self]/view_1" type="View"><data metatype="ReshapeOp" /><input><port id="0"><dim>32</dim><dim>128</dim><dim>768</dim></port></input><output><port id="0"><dim>32</dim><dim>128</dim><dim>12</dim><dim>64</dim></port></output></layer><layer id="283" name="BertForSequenceClassification/BertModel[bert]/BertEncoder[encoder]/ModuleList[layer]/BertLayer[6]/BertAttention[attention]/BertSelfAttention[self]/permute_1" type="Permute"><data metatype="TransposeOp" /><input><port id="0"><dim>32</dim><dim>128</dim><dim>12</dim><dim>64</dim></port></input><output><port id="0"><dim>32</dim><dim>12</dim><dim>128</dim><dim>64</dim></port></output></layer><layer id="284" name="BertForSequenceClassification/BertModel[bert]/BertEncoder[encoder]/ModuleList[layer]/BertLayer[6]/BertAttention[attention]/BertSelfAttention[self]/view_2" type="View"><data metatype="ReshapeOp" /><input><port id="0"><dim>32</dim><dim>128</dim><dim>768</dim></port></input><output><port id="0"><dim>32</dim><dim>128</dim><dim>12</dim><dim>64</dim></port></output></layer><layer id="285" name="BertForSequenceClassification/BertModel[bert]/BertEncoder[encoder]/ModuleList[layer]/BertLayer[6]/BertAttention[attention]/BertSelfAttention[self]/permute_2" type="Permute"><data metatype="TransposeOp" /><input><port id="0"><dim>32</dim><dim>128</dim><dim>12</dim><dim>64</dim></port></input><output><port id="0"><dim>32</dim><dim>12</dim><dim>128</dim><dim>64</dim></port></output></layer><layer id="286" name="BertForSequenceClassification/BertModel[bert]/BertEncoder[encoder]/ModuleList[layer]/BertLayer[6]/BertAttention[attention]/BertSelfAttention[self]/transpose_0" type="Transpose"><data metatype="TransposeOp" /><input><port id="0"><dim>32</dim><dim>12</dim><dim>128</dim><dim>64</dim></port></input><output><port id="0"><dim>32</dim><dim>12</dim><dim>64</dim><dim>128</dim></port></output></layer><layer id="287" name="BertForSequenceClassification/BertModel[bert]/BertEncoder[encoder]/ModuleList[layer]/BertLayer[6]/BertAttention[attention]/BertSelfAttention[self]/matmul_0" type="Matmul"><data metatype="MatMulOp" /><input><port id="0"><dim>32</dim><dim>12</dim><dim>128</dim><dim>64</dim></port><port id="1"><dim>32</dim><dim>12</dim><dim>64</dim><dim>128</dim></port></input><output><port id="0"><dim>32</dim><dim>12</dim><dim>128</dim><dim>128</dim></port></output></layer><layer id="288" name="BertForSequenceClassification/BertModel[bert]/BertEncoder[encoder]/ModuleList[layer]/BertLayer[6]/BertAttention[attention]/BertSelfAttention[self]/__truediv___0" type="__Truediv__"><data metatype="DivOp" /><input><port id="0"><dim>32</dim><dim>12</dim><dim>128</dim><dim>128</dim></port></input><output><port id="0"><dim>32</dim><dim>12</dim><dim>128</dim><dim>128</dim></port></output></layer><layer id="289" name="BertForSequenceClassification/BertModel[bert]/BertEncoder[encoder]/ModuleList[layer]/BertLayer[6]/BertAttention[attention]/BertSelfAttention[self]/__add___0" type="__Add__"><data metatype="AddOp" /><input><port id="0"><dim>32</dim><dim>12</dim><dim>128</dim><dim>128</dim></port></input><output><port id="0"><dim>32</dim><dim>12</dim><dim>128</dim><dim>128</dim></port></output></layer><layer id="290" name="BertForSequenceClassification/BertModel[bert]/BertEncoder[encoder]/ModuleList[layer]/BertLayer[6]/BertAttention[attention]/BertSelfAttention[self]/softmax_0" type="Softmax"><data metatype="SoftmaxOp" /><input><port id="0"><dim>32</dim><dim>12</dim><dim>128</dim><dim>128</dim></port></input><output><port id="0"><dim>32</dim><dim>12</dim><dim>128</dim><dim>128</dim></port></output></layer><layer id="291" name="BertForSequenceClassification/BertModel[bert]/BertEncoder[encoder]/ModuleList[layer]/BertLayer[6]/BertAttention[attention]/BertSelfAttention[self]/Dropout[dropout]/dropout_0" type="Dropout"><data metatype="DropoutOp" /><input><port id="0"><dim>32</dim><dim>12</dim><dim>128</dim><dim>128</dim></port></input><output><port id="0"><dim>32</dim><dim>12</dim><dim>128</dim><dim>128</dim></port></output></layer><layer id="292" name="BertForSequenceClassification/BertModel[bert]/BertEncoder[encoder]/ModuleList[layer]/BertLayer[6]/BertAttention[attention]/BertSelfAttention[self]/matmul_1" type="Matmul"><data metatype="MatMulOp" /><input><port id="0"><dim>32</dim><dim>12</dim><dim>128</dim><dim>128</dim></port><port id="1"><dim>32</dim><dim>12</dim><dim>128</dim><dim>64</dim></port></input><output><port id="0"><dim>32</dim><dim>12</dim><dim>128</dim><dim>64</dim></port></output></layer><layer id="293" name="BertForSequenceClassification/BertModel[bert]/BertEncoder[encoder]/ModuleList[layer]/BertLayer[6]/BertAttention[attention]/BertSelfAttention[self]/SymmetricQuantizer/symmetric_quantize_0" type="Symmetric_Quantize"><data metatype="unknown" /><input><port id="0"><dim>32</dim><dim>12</dim><dim>128</dim><dim>64</dim></port></input><output><port id="0"><dim>32</dim><dim>12</dim><dim>128</dim><dim>64</dim></port></output></layer><layer id="294" name="BertForSequenceClassification/BertModel[bert]/BertEncoder[encoder]/ModuleList[layer]/BertLayer[6]/BertAttention[attention]/BertSelfAttention[self]/permute_3" type="Permute"><data metatype="TransposeOp" /><input><port id="0"><dim>32</dim><dim>12</dim><dim>128</dim><dim>64</dim></port></input><output><port id="0"><dim>32</dim><dim>128</dim><dim>12</dim><dim>64</dim></port></output></layer><layer id="295" name="BertForSequenceClassification/BertModel[bert]/BertEncoder[encoder]/ModuleList[layer]/BertLayer[6]/BertAttention[attention]/BertSelfAttention[self]/contiguous_0" type="Contiguous"><data metatype="noop" /><input><port id="0"><dim>32</dim><dim>128</dim><dim>12</dim><dim>64</dim></port></input><output><port id="0"><dim>32</dim><dim>128</dim><dim>12</dim><dim>64</dim></port></output></layer><layer id="296" name="BertForSequenceClassification/BertModel[bert]/BertEncoder[encoder]/ModuleList[layer]/BertLayer[6]/BertAttention[attention]/BertSelfAttention[self]/view_3" type="View"><data metatype="ReshapeOp" /><input><port id="0"><dim>32</dim><dim>128</dim><dim>12</dim><dim>64</dim></port></input><output><port id="0"><dim>32</dim><dim>128</dim><dim>768</dim></port></output></layer><layer id="297" name="BertForSequenceClassification/BertModel[bert]/BertEncoder[encoder]/ModuleList[layer]/BertLayer[6]/BertAttention[attention]/BertSelfOutput[output]/NNCFLinear[dense]/ModuleDict[pre_ops]/UpdateWeight[0]/SymmetricQuantizer[op]/symmetric_quantize_0" type="Symmetric_Quantize"><data metatype="unknown" /><output><port id="0"><dim>768</dim><dim>768</dim></port></output></layer><layer id="298" name="BertForSequenceClassification/BertModel[bert]/BertEncoder[encoder]/ModuleList[layer]/BertLayer[6]/BertAttention[attention]/BertSelfOutput[output]/NNCFLinear[dense]/linear_0" type="Linear"><data metatype="LinearOp" /><input><port id="0"><dim>32</dim><dim>128</dim><dim>768</dim></port><port id="1"><dim>768</dim><dim>768</dim></port></input><output><port id="0"><dim>32</dim><dim>128</dim><dim>768</dim></port></output></layer><layer id="299" name="BertForSequenceClassification/BertModel[bert]/BertEncoder[encoder]/ModuleList[layer]/BertLayer[6]/BertAttention[attention]/BertSelfOutput[output]/Dropout[dropout]/dropout_0" type="Dropout"><data metatype="DropoutOp" /><input><port id="0"><dim>32</dim><dim>128</dim><dim>768</dim></port></input><output><port id="0"><dim>32</dim><dim>128</dim><dim>768</dim></port></output></layer><layer id="300" name="BertForSequenceClassification/BertModel[bert]/BertEncoder[encoder]/ModuleList[layer]/BertLayer[6]/BertAttention[attention]/BertSelfOutput[output]/__add___0" type="__Add__"><data metatype="AddOp" /><input><port id="0"><dim>32</dim><dim>128</dim><dim>768</dim></port><port id="1"><dim>32</dim><dim>128</dim><dim>768</dim></port></input><output><port id="0"><dim>32</dim><dim>128</dim><dim>768</dim></port></output></layer><layer id="301" name="BertForSequenceClassification/BertModel[bert]/BertEncoder[encoder]/ModuleList[layer]/BertLayer[6]/BertAttention[attention]/BertSelfOutput[output]/NNCFLayerNorm[LayerNorm]/layer_norm_0" type="Layer_Norm"><data metatype="LayerNormOp" /><input><port id="0"><dim>32</dim><dim>128</dim><dim>768</dim></port></input><output><port id="0"><dim>32</dim><dim>128</dim><dim>768</dim></port><port id="0"><dim>32</dim><dim>128</dim><dim>768</dim></port></output></layer><layer id="302" name="BertForSequenceClassification/BertModel[bert]/BertEncoder[encoder]/ModuleList[layer]/BertLayer[6]/BertIntermediate[intermediate]/NNCFLinear[dense]/ModuleDict[pre_ops]/UpdateWeight[0]/SymmetricQuantizer[op]/symmetric_quantize_0" type="Symmetric_Quantize"><data metatype="unknown" /><output><port id="0"><dim>3072</dim><dim>768</dim></port></output></layer><layer id="303" name="BertForSequenceClassification/BertModel[bert]/BertEncoder[encoder]/ModuleList[layer]/BertLayer[6]/BertIntermediate[intermediate]/NNCFLinear[dense]/SymmetricQuantizer/symmetric_quantize_0" type="Symmetric_Quantize"><data metatype="unknown" /><input><port id="0"><dim>32</dim><dim>128</dim><dim>768</dim></port></input><output><port id="0"><dim>32</dim><dim>128</dim><dim>768</dim></port></output></layer><layer id="304" name="BertForSequenceClassification/BertModel[bert]/BertEncoder[encoder]/ModuleList[layer]/BertLayer[6]/BertIntermediate[intermediate]/NNCFLinear[dense]/linear_0" type="Linear"><data metatype="LinearOp" /><input><port id="0"><dim>32</dim><dim>128</dim><dim>768</dim></port><port id="1"><dim>3072</dim><dim>768</dim></port></input><output><port id="0"><dim>32</dim><dim>128</dim><dim>3072</dim></port></output></layer><layer id="305" name="BertForSequenceClassification/BertModel[bert]/BertEncoder[encoder]/ModuleList[layer]/BertLayer[6]/BertIntermediate[intermediate]/GELUActivation[intermediate_act_fn]/gelu_0" type="Gelu"><data metatype="GeluOp" /><input><port id="0"><dim>32</dim><dim>128</dim><dim>3072</dim></port></input><output><port id="0"><dim>32</dim><dim>128</dim><dim>3072</dim></port></output></layer><layer id="306" name="BertForSequenceClassification/BertModel[bert]/BertEncoder[encoder]/ModuleList[layer]/BertLayer[6]/BertIntermediate[intermediate]/GELUActivation[intermediate_act_fn]/SymmetricQuantizer/symmetric_quantize_0" type="Symmetric_Quantize"><data metatype="unknown" /><input><port id="0"><dim>32</dim><dim>128</dim><dim>3072</dim></port></input><output><port id="0"><dim>32</dim><dim>128</dim><dim>3072</dim></port></output></layer><layer id="307" name="BertForSequenceClassification/BertModel[bert]/BertEncoder[encoder]/ModuleList[layer]/BertLayer[6]/BertOutput[output]/NNCFLinear[dense]/ModuleDict[pre_ops]/UpdateWeight[0]/SymmetricQuantizer[op]/symmetric_quantize_0" type="Symmetric_Quantize"><data metatype="unknown" /><output><port id="0"><dim>768</dim><dim>3072</dim></port></output></layer><layer id="308" name="BertForSequenceClassification/BertModel[bert]/BertEncoder[encoder]/ModuleList[layer]/BertLayer[6]/BertOutput[output]/NNCFLinear[dense]/linear_0" type="Linear"><data metatype="LinearOp" /><input><port id="0"><dim>32</dim><dim>128</dim><dim>3072</dim></port><port id="1"><dim>768</dim><dim>3072</dim></port></input><output><port id="0"><dim>32</dim><dim>128</dim><dim>768</dim></port></output></layer><layer id="309" name="BertForSequenceClassification/BertModel[bert]/BertEncoder[encoder]/ModuleList[layer]/BertLayer[6]/BertOutput[output]/Dropout[dropout]/dropout_0" type="Dropout"><data metatype="DropoutOp" /><input><port id="0"><dim>32</dim><dim>128</dim><dim>768</dim></port></input><output><port id="0"><dim>32</dim><dim>128</dim><dim>768</dim></port></output></layer><layer id="310" name="BertForSequenceClassification/BertModel[bert]/BertEncoder[encoder]/ModuleList[layer]/BertLayer[6]/BertOutput[output]/__add___0" type="__Add__"><data metatype="AddOp" /><input><port id="0"><dim>32</dim><dim>128</dim><dim>768</dim></port><port id="1"><dim>32</dim><dim>128</dim><dim>768</dim></port></input><output><port id="0"><dim>32</dim><dim>128</dim><dim>768</dim></port></output></layer><layer id="311" name="BertForSequenceClassification/BertModel[bert]/BertEncoder[encoder]/ModuleList[layer]/BertLayer[6]/BertOutput[output]/NNCFLayerNorm[LayerNorm]/layer_norm_0" type="Layer_Norm"><data metatype="LayerNormOp" /><input><port id="0"><dim>32</dim><dim>128</dim><dim>768</dim></port></input><output><port id="0"><dim>32</dim><dim>128</dim><dim>768</dim></port><port id="0"><dim>32</dim><dim>128</dim><dim>768</dim></port><port id="0"><dim>32</dim><dim>128</dim><dim>768</dim></port><port id="0"><dim>32</dim><dim>128</dim><dim>768</dim></port></output></layer><layer id="312" name="BertForSequenceClassification/BertModel[bert]/BertEncoder[encoder]/ModuleList[layer]/BertLayer[7]/BertAttention[attention]/BertSelfAttention[self]/NNCFLinear[query]/ModuleDict[pre_ops]/UpdateWeight[0]/SymmetricQuantizer[op]/symmetric_quantize_0" type="Symmetric_Quantize"><data metatype="unknown" /><output><port id="0"><dim>768</dim><dim>768</dim></port></output></layer><layer id="313" name="BertForSequenceClassification/BertModel[bert]/BertEncoder[encoder]/ModuleList[layer]/BertLayer[7]/BertAttention[attention]/BertSelfAttention[self]/NNCFLinear[query]/SymmetricQuantizer/symmetric_quantize_0" type="Symmetric_Quantize"><data metatype="unknown" /><input><port id="0"><dim>32</dim><dim>128</dim><dim>768</dim></port></input><output><port id="0"><dim>32</dim><dim>128</dim><dim>768</dim></port></output></layer><layer id="314" name="BertForSequenceClassification/BertModel[bert]/BertEncoder[encoder]/ModuleList[layer]/BertLayer[7]/BertAttention[attention]/BertSelfAttention[self]/NNCFLinear[query]/linear_0" type="Linear"><data metatype="LinearOp" /><input><port id="0"><dim>32</dim><dim>128</dim><dim>768</dim></port><port id="1"><dim>768</dim><dim>768</dim></port></input><output><port id="0"><dim>32</dim><dim>128</dim><dim>768</dim></port></output></layer><layer id="315" name="BertForSequenceClassification/BertModel[bert]/BertEncoder[encoder]/ModuleList[layer]/BertLayer[7]/BertAttention[attention]/BertSelfAttention[self]/NNCFLinear[query]/SymmetricQuantizer/symmetric_quantize_1" type="Symmetric_Quantize"><data metatype="unknown" /><input><port id="0"><dim>32</dim><dim>128</dim><dim>768</dim></port></input><output><port id="0"><dim>32</dim><dim>128</dim><dim>768</dim></port></output></layer><layer id="316" name="BertForSequenceClassification/BertModel[bert]/BertEncoder[encoder]/ModuleList[layer]/BertLayer[7]/BertAttention[attention]/BertSelfAttention[self]/NNCFLinear[key]/ModuleDict[pre_ops]/UpdateWeight[0]/SymmetricQuantizer[op]/symmetric_quantize_0" type="Symmetric_Quantize"><data metatype="unknown" /><output><port id="0"><dim>768</dim><dim>768</dim></port></output></layer><layer id="317" name="BertForSequenceClassification/BertModel[bert]/BertEncoder[encoder]/ModuleList[layer]/BertLayer[7]/BertAttention[attention]/BertSelfAttention[self]/NNCFLinear[key]/SymmetricQuantizer/symmetric_quantize_0" type="Symmetric_Quantize"><data metatype="unknown" /><input><port id="0"><dim>32</dim><dim>128</dim><dim>768</dim></port></input><output><port id="0"><dim>32</dim><dim>128</dim><dim>768</dim></port></output></layer><layer id="318" name="BertForSequenceClassification/BertModel[bert]/BertEncoder[encoder]/ModuleList[layer]/BertLayer[7]/BertAttention[attention]/BertSelfAttention[self]/NNCFLinear[key]/linear_0" type="Linear"><data metatype="LinearOp" /><input><port id="0"><dim>32</dim><dim>128</dim><dim>768</dim></port><port id="1"><dim>768</dim><dim>768</dim></port></input><output><port id="0"><dim>32</dim><dim>128</dim><dim>768</dim></port></output></layer><layer id="319" name="BertForSequenceClassification/BertModel[bert]/BertEncoder[encoder]/ModuleList[layer]/BertLayer[7]/BertAttention[attention]/BertSelfAttention[self]/NNCFLinear[key]/SymmetricQuantizer/symmetric_quantize_1" type="Symmetric_Quantize"><data metatype="unknown" /><input><port id="0"><dim>32</dim><dim>128</dim><dim>768</dim></port></input><output><port id="0"><dim>32</dim><dim>128</dim><dim>768</dim></port></output></layer><layer id="320" name="BertForSequenceClassification/BertModel[bert]/BertEncoder[encoder]/ModuleList[layer]/BertLayer[7]/BertAttention[attention]/BertSelfAttention[self]/view_0" type="View"><data metatype="ReshapeOp" /><input><port id="0"><dim>32</dim><dim>128</dim><dim>768</dim></port></input><output><port id="0"><dim>32</dim><dim>128</dim><dim>12</dim><dim>64</dim></port></output></layer><layer id="321" name="BertForSequenceClassification/BertModel[bert]/BertEncoder[encoder]/ModuleList[layer]/BertLayer[7]/BertAttention[attention]/BertSelfAttention[self]/permute_0" type="Permute"><data metatype="TransposeOp" /><input><port id="0"><dim>32</dim><dim>128</dim><dim>12</dim><dim>64</dim></port></input><output><port id="0"><dim>32</dim><dim>12</dim><dim>128</dim><dim>64</dim></port></output></layer><layer id="322" name="BertForSequenceClassification/BertModel[bert]/BertEncoder[encoder]/ModuleList[layer]/BertLayer[7]/BertAttention[attention]/BertSelfAttention[self]/NNCFLinear[value]/ModuleDict[pre_ops]/UpdateWeight[0]/SymmetricQuantizer[op]/symmetric_quantize_0" type="Symmetric_Quantize"><data metatype="unknown" /><output><port id="0"><dim>768</dim><dim>768</dim></port></output></layer><layer id="323" name="BertForSequenceClassification/BertModel[bert]/BertEncoder[encoder]/ModuleList[layer]/BertLayer[7]/BertAttention[attention]/BertSelfAttention[self]/NNCFLinear[value]/SymmetricQuantizer/symmetric_quantize_0" type="Symmetric_Quantize"><data metatype="unknown" /><input><port id="0"><dim>32</dim><dim>128</dim><dim>768</dim></port></input><output><port id="0"><dim>32</dim><dim>128</dim><dim>768</dim></port></output></layer><layer id="324" name="BertForSequenceClassification/BertModel[bert]/BertEncoder[encoder]/ModuleList[layer]/BertLayer[7]/BertAttention[attention]/BertSelfAttention[self]/NNCFLinear[value]/linear_0" type="Linear"><data metatype="LinearOp" /><input><port id="0"><dim>32</dim><dim>128</dim><dim>768</dim></port><port id="1"><dim>768</dim><dim>768</dim></port></input><output><port id="0"><dim>32</dim><dim>128</dim><dim>768</dim></port></output></layer><layer id="325" name="BertForSequenceClassification/BertModel[bert]/BertEncoder[encoder]/ModuleList[layer]/BertLayer[7]/BertAttention[attention]/BertSelfAttention[self]/view_1" type="View"><data metatype="ReshapeOp" /><input><port id="0"><dim>32</dim><dim>128</dim><dim>768</dim></port></input><output><port id="0"><dim>32</dim><dim>128</dim><dim>12</dim><dim>64</dim></port></output></layer><layer id="326" name="BertForSequenceClassification/BertModel[bert]/BertEncoder[encoder]/ModuleList[layer]/BertLayer[7]/BertAttention[attention]/BertSelfAttention[self]/permute_1" type="Permute"><data metatype="TransposeOp" /><input><port id="0"><dim>32</dim><dim>128</dim><dim>12</dim><dim>64</dim></port></input><output><port id="0"><dim>32</dim><dim>12</dim><dim>128</dim><dim>64</dim></port></output></layer><layer id="327" name="BertForSequenceClassification/BertModel[bert]/BertEncoder[encoder]/ModuleList[layer]/BertLayer[7]/BertAttention[attention]/BertSelfAttention[self]/view_2" type="View"><data metatype="ReshapeOp" /><input><port id="0"><dim>32</dim><dim>128</dim><dim>768</dim></port></input><output><port id="0"><dim>32</dim><dim>128</dim><dim>12</dim><dim>64</dim></port></output></layer><layer id="328" name="BertForSequenceClassification/BertModel[bert]/BertEncoder[encoder]/ModuleList[layer]/BertLayer[7]/BertAttention[attention]/BertSelfAttention[self]/permute_2" type="Permute"><data metatype="TransposeOp" /><input><port id="0"><dim>32</dim><dim>128</dim><dim>12</dim><dim>64</dim></port></input><output><port id="0"><dim>32</dim><dim>12</dim><dim>128</dim><dim>64</dim></port></output></layer><layer id="329" name="BertForSequenceClassification/BertModel[bert]/BertEncoder[encoder]/ModuleList[layer]/BertLayer[7]/BertAttention[attention]/BertSelfAttention[self]/transpose_0" type="Transpose"><data metatype="TransposeOp" /><input><port id="0"><dim>32</dim><dim>12</dim><dim>128</dim><dim>64</dim></port></input><output><port id="0"><dim>32</dim><dim>12</dim><dim>64</dim><dim>128</dim></port></output></layer><layer id="330" name="BertForSequenceClassification/BertModel[bert]/BertEncoder[encoder]/ModuleList[layer]/BertLayer[7]/BertAttention[attention]/BertSelfAttention[self]/matmul_0" type="Matmul"><data metatype="MatMulOp" /><input><port id="0"><dim>32</dim><dim>12</dim><dim>128</dim><dim>64</dim></port><port id="1"><dim>32</dim><dim>12</dim><dim>64</dim><dim>128</dim></port></input><output><port id="0"><dim>32</dim><dim>12</dim><dim>128</dim><dim>128</dim></port></output></layer><layer id="331" name="BertForSequenceClassification/BertModel[bert]/BertEncoder[encoder]/ModuleList[layer]/BertLayer[7]/BertAttention[attention]/BertSelfAttention[self]/__truediv___0" type="__Truediv__"><data metatype="DivOp" /><input><port id="0"><dim>32</dim><dim>12</dim><dim>128</dim><dim>128</dim></port></input><output><port id="0"><dim>32</dim><dim>12</dim><dim>128</dim><dim>128</dim></port></output></layer><layer id="332" name="BertForSequenceClassification/BertModel[bert]/BertEncoder[encoder]/ModuleList[layer]/BertLayer[7]/BertAttention[attention]/BertSelfAttention[self]/__add___0" type="__Add__"><data metatype="AddOp" /><input><port id="0"><dim>32</dim><dim>12</dim><dim>128</dim><dim>128</dim></port></input><output><port id="0"><dim>32</dim><dim>12</dim><dim>128</dim><dim>128</dim></port></output></layer><layer id="333" name="BertForSequenceClassification/BertModel[bert]/BertEncoder[encoder]/ModuleList[layer]/BertLayer[7]/BertAttention[attention]/BertSelfAttention[self]/softmax_0" type="Softmax"><data metatype="SoftmaxOp" /><input><port id="0"><dim>32</dim><dim>12</dim><dim>128</dim><dim>128</dim></port></input><output><port id="0"><dim>32</dim><dim>12</dim><dim>128</dim><dim>128</dim></port></output></layer><layer id="334" name="BertForSequenceClassification/BertModel[bert]/BertEncoder[encoder]/ModuleList[layer]/BertLayer[7]/BertAttention[attention]/BertSelfAttention[self]/Dropout[dropout]/dropout_0" type="Dropout"><data metatype="DropoutOp" /><input><port id="0"><dim>32</dim><dim>12</dim><dim>128</dim><dim>128</dim></port></input><output><port id="0"><dim>32</dim><dim>12</dim><dim>128</dim><dim>128</dim></port></output></layer><layer id="335" name="BertForSequenceClassification/BertModel[bert]/BertEncoder[encoder]/ModuleList[layer]/BertLayer[7]/BertAttention[attention]/BertSelfAttention[self]/matmul_1" type="Matmul"><data metatype="MatMulOp" /><input><port id="0"><dim>32</dim><dim>12</dim><dim>128</dim><dim>128</dim></port><port id="1"><dim>32</dim><dim>12</dim><dim>128</dim><dim>64</dim></port></input><output><port id="0"><dim>32</dim><dim>12</dim><dim>128</dim><dim>64</dim></port></output></layer><layer id="336" name="BertForSequenceClassification/BertModel[bert]/BertEncoder[encoder]/ModuleList[layer]/BertLayer[7]/BertAttention[attention]/BertSelfAttention[self]/SymmetricQuantizer/symmetric_quantize_0" type="Symmetric_Quantize"><data metatype="unknown" /><input><port id="0"><dim>32</dim><dim>12</dim><dim>128</dim><dim>64</dim></port></input><output><port id="0"><dim>32</dim><dim>12</dim><dim>128</dim><dim>64</dim></port></output></layer><layer id="337" name="BertForSequenceClassification/BertModel[bert]/BertEncoder[encoder]/ModuleList[layer]/BertLayer[7]/BertAttention[attention]/BertSelfAttention[self]/permute_3" type="Permute"><data metatype="TransposeOp" /><input><port id="0"><dim>32</dim><dim>12</dim><dim>128</dim><dim>64</dim></port></input><output><port id="0"><dim>32</dim><dim>128</dim><dim>12</dim><dim>64</dim></port></output></layer><layer id="338" name="BertForSequenceClassification/BertModel[bert]/BertEncoder[encoder]/ModuleList[layer]/BertLayer[7]/BertAttention[attention]/BertSelfAttention[self]/contiguous_0" type="Contiguous"><data metatype="noop" /><input><port id="0"><dim>32</dim><dim>128</dim><dim>12</dim><dim>64</dim></port></input><output><port id="0"><dim>32</dim><dim>128</dim><dim>12</dim><dim>64</dim></port></output></layer><layer id="339" name="BertForSequenceClassification/BertModel[bert]/BertEncoder[encoder]/ModuleList[layer]/BertLayer[7]/BertAttention[attention]/BertSelfAttention[self]/view_3" type="View"><data metatype="ReshapeOp" /><input><port id="0"><dim>32</dim><dim>128</dim><dim>12</dim><dim>64</dim></port></input><output><port id="0"><dim>32</dim><dim>128</dim><dim>768</dim></port></output></layer><layer id="340" name="BertForSequenceClassification/BertModel[bert]/BertEncoder[encoder]/ModuleList[layer]/BertLayer[7]/BertAttention[attention]/BertSelfOutput[output]/NNCFLinear[dense]/ModuleDict[pre_ops]/UpdateWeight[0]/SymmetricQuantizer[op]/symmetric_quantize_0" type="Symmetric_Quantize"><data metatype="unknown" /><output><port id="0"><dim>768</dim><dim>768</dim></port></output></layer><layer id="341" name="BertForSequenceClassification/BertModel[bert]/BertEncoder[encoder]/ModuleList[layer]/BertLayer[7]/BertAttention[attention]/BertSelfOutput[output]/NNCFLinear[dense]/linear_0" type="Linear"><data metatype="LinearOp" /><input><port id="0"><dim>32</dim><dim>128</dim><dim>768</dim></port><port id="1"><dim>768</dim><dim>768</dim></port></input><output><port id="0"><dim>32</dim><dim>128</dim><dim>768</dim></port></output></layer><layer id="342" name="BertForSequenceClassification/BertModel[bert]/BertEncoder[encoder]/ModuleList[layer]/BertLayer[7]/BertAttention[attention]/BertSelfOutput[output]/Dropout[dropout]/dropout_0" type="Dropout"><data metatype="DropoutOp" /><input><port id="0"><dim>32</dim><dim>128</dim><dim>768</dim></port></input><output><port id="0"><dim>32</dim><dim>128</dim><dim>768</dim></port></output></layer><layer id="343" name="BertForSequenceClassification/BertModel[bert]/BertEncoder[encoder]/ModuleList[layer]/BertLayer[7]/BertAttention[attention]/BertSelfOutput[output]/__add___0" type="__Add__"><data metatype="AddOp" /><input><port id="0"><dim>32</dim><dim>128</dim><dim>768</dim></port><port id="1"><dim>32</dim><dim>128</dim><dim>768</dim></port></input><output><port id="0"><dim>32</dim><dim>128</dim><dim>768</dim></port></output></layer><layer id="344" name="BertForSequenceClassification/BertModel[bert]/BertEncoder[encoder]/ModuleList[layer]/BertLayer[7]/BertAttention[attention]/BertSelfOutput[output]/NNCFLayerNorm[LayerNorm]/layer_norm_0" type="Layer_Norm"><data metatype="LayerNormOp" /><input><port id="0"><dim>32</dim><dim>128</dim><dim>768</dim></port></input><output><port id="0"><dim>32</dim><dim>128</dim><dim>768</dim></port><port id="0"><dim>32</dim><dim>128</dim><dim>768</dim></port></output></layer><layer id="345" name="BertForSequenceClassification/BertModel[bert]/BertEncoder[encoder]/ModuleList[layer]/BertLayer[7]/BertIntermediate[intermediate]/NNCFLinear[dense]/ModuleDict[pre_ops]/UpdateWeight[0]/SymmetricQuantizer[op]/symmetric_quantize_0" type="Symmetric_Quantize"><data metatype="unknown" /><output><port id="0"><dim>3072</dim><dim>768</dim></port></output></layer><layer id="346" name="BertForSequenceClassification/BertModel[bert]/BertEncoder[encoder]/ModuleList[layer]/BertLayer[7]/BertIntermediate[intermediate]/NNCFLinear[dense]/SymmetricQuantizer/symmetric_quantize_0" type="Symmetric_Quantize"><data metatype="unknown" /><input><port id="0"><dim>32</dim><dim>128</dim><dim>768</dim></port></input><output><port id="0"><dim>32</dim><dim>128</dim><dim>768</dim></port></output></layer><layer id="347" name="BertForSequenceClassification/BertModel[bert]/BertEncoder[encoder]/ModuleList[layer]/BertLayer[7]/BertIntermediate[intermediate]/NNCFLinear[dense]/linear_0" type="Linear"><data metatype="LinearOp" /><input><port id="0"><dim>32</dim><dim>128</dim><dim>768</dim></port><port id="1"><dim>3072</dim><dim>768</dim></port></input><output><port id="0"><dim>32</dim><dim>128</dim><dim>3072</dim></port></output></layer><layer id="348" name="BertForSequenceClassification/BertModel[bert]/BertEncoder[encoder]/ModuleList[layer]/BertLayer[7]/BertIntermediate[intermediate]/GELUActivation[intermediate_act_fn]/gelu_0" type="Gelu"><data metatype="GeluOp" /><input><port id="0"><dim>32</dim><dim>128</dim><dim>3072</dim></port></input><output><port id="0"><dim>32</dim><dim>128</dim><dim>3072</dim></port></output></layer><layer id="349" name="BertForSequenceClassification/BertModel[bert]/BertEncoder[encoder]/ModuleList[layer]/BertLayer[7]/BertIntermediate[intermediate]/GELUActivation[intermediate_act_fn]/SymmetricQuantizer/symmetric_quantize_0" type="Symmetric_Quantize"><data metatype="unknown" /><input><port id="0"><dim>32</dim><dim>128</dim><dim>3072</dim></port></input><output><port id="0"><dim>32</dim><dim>128</dim><dim>3072</dim></port></output></layer><layer id="350" name="BertForSequenceClassification/BertModel[bert]/BertEncoder[encoder]/ModuleList[layer]/BertLayer[7]/BertOutput[output]/NNCFLinear[dense]/ModuleDict[pre_ops]/UpdateWeight[0]/SymmetricQuantizer[op]/symmetric_quantize_0" type="Symmetric_Quantize"><data metatype="unknown" /><output><port id="0"><dim>768</dim><dim>3072</dim></port></output></layer><layer id="351" name="BertForSequenceClassification/BertModel[bert]/BertEncoder[encoder]/ModuleList[layer]/BertLayer[7]/BertOutput[output]/NNCFLinear[dense]/linear_0" type="Linear"><data metatype="LinearOp" /><input><port id="0"><dim>32</dim><dim>128</dim><dim>3072</dim></port><port id="1"><dim>768</dim><dim>3072</dim></port></input><output><port id="0"><dim>32</dim><dim>128</dim><dim>768</dim></port></output></layer><layer id="352" name="BertForSequenceClassification/BertModel[bert]/BertEncoder[encoder]/ModuleList[layer]/BertLayer[7]/BertOutput[output]/Dropout[dropout]/dropout_0" type="Dropout"><data metatype="DropoutOp" /><input><port id="0"><dim>32</dim><dim>128</dim><dim>768</dim></port></input><output><port id="0"><dim>32</dim><dim>128</dim><dim>768</dim></port></output></layer><layer id="353" name="BertForSequenceClassification/BertModel[bert]/BertEncoder[encoder]/ModuleList[layer]/BertLayer[7]/BertOutput[output]/__add___0" type="__Add__"><data metatype="AddOp" /><input><port id="0"><dim>32</dim><dim>128</dim><dim>768</dim></port><port id="1"><dim>32</dim><dim>128</dim><dim>768</dim></port></input><output><port id="0"><dim>32</dim><dim>128</dim><dim>768</dim></port></output></layer><layer id="354" name="BertForSequenceClassification/BertModel[bert]/BertEncoder[encoder]/ModuleList[layer]/BertLayer[7]/BertOutput[output]/NNCFLayerNorm[LayerNorm]/layer_norm_0" type="Layer_Norm"><data metatype="LayerNormOp" /><input><port id="0"><dim>32</dim><dim>128</dim><dim>768</dim></port></input><output><port id="0"><dim>32</dim><dim>128</dim><dim>768</dim></port><port id="0"><dim>32</dim><dim>128</dim><dim>768</dim></port><port id="0"><dim>32</dim><dim>128</dim><dim>768</dim></port><port id="0"><dim>32</dim><dim>128</dim><dim>768</dim></port></output></layer><layer id="355" name="BertForSequenceClassification/BertModel[bert]/BertEncoder[encoder]/ModuleList[layer]/BertLayer[8]/BertAttention[attention]/BertSelfAttention[self]/NNCFLinear[query]/ModuleDict[pre_ops]/UpdateWeight[0]/SymmetricQuantizer[op]/symmetric_quantize_0" type="Symmetric_Quantize"><data metatype="unknown" /><output><port id="0"><dim>768</dim><dim>768</dim></port></output></layer><layer id="356" name="BertForSequenceClassification/BertModel[bert]/BertEncoder[encoder]/ModuleList[layer]/BertLayer[8]/BertAttention[attention]/BertSelfAttention[self]/NNCFLinear[query]/SymmetricQuantizer/symmetric_quantize_0" type="Symmetric_Quantize"><data metatype="unknown" /><input><port id="0"><dim>32</dim><dim>128</dim><dim>768</dim></port></input><output><port id="0"><dim>32</dim><dim>128</dim><dim>768</dim></port></output></layer><layer id="357" name="BertForSequenceClassification/BertModel[bert]/Bert…
Classification/BertModel[bert]/BertEncoder[encoder]/ModuleList[layer]/BertLayer[11]/BertAttention[attention]/BertSelfAttention[self]/matmul_1" type="Matmul"><data metatype="MatMulOp" /><input><port id="0"><dim>32</dim><dim>12</dim><dim>128</dim><dim>128</dim></port><port id="1"><dim>32</dim><dim>12</dim><dim>128</dim><dim>64</dim></port></input><output><port id="0"><dim>32</dim><dim>12</dim><dim>128</dim><dim>64</dim></port></output></layer><layer id="508" name="BertForSequenceClassification/BertModel[bert]/BertEncoder[encoder]/ModuleList[layer]/BertLayer[11]/BertAttention[attention]/BertSelfAttention[self]/SymmetricQuantizer/symmetric_quantize_0" type="Symmetric_Quantize"><data metatype="unknown" /><input><port id="0"><dim>32</dim><dim>12</dim><dim>128</dim><dim>64</dim></port></input><output><port id="0"><dim>32</dim><dim>12</dim><dim>128</dim><dim>64</dim></port></output></layer><layer id="509" name="BertForSequenceClassification/BertModel[bert]/BertEncoder[encoder]/ModuleList[layer]/BertLayer[11]/BertAttention[attention]/BertSelfAttention[self]/permute_3" type="Permute"><data metatype="TransposeOp" /><input><port id="0"><dim>32</dim><dim>12</dim><dim>128</dim><dim>64</dim></port></input><output><port id="0"><dim>32</dim><dim>128</dim><dim>12</dim><dim>64</dim></port></output></layer><layer id="510" name="BertForSequenceClassification/BertModel[bert]/BertEncoder[encoder]/ModuleList[layer]/BertLayer[11]/BertAttention[attention]/BertSelfAttention[self]/contiguous_0" type="Contiguous"><data metatype="noop" /><input><port id="0"><dim>32</dim><dim>128</dim><dim>12</dim><dim>64</dim></port></input><output><port id="0"><dim>32</dim><dim>128</dim><dim>12</dim><dim>64</dim></port></output></layer><layer id="511" name="BertForSequenceClassification/BertModel[bert]/BertEncoder[encoder]/ModuleList[layer]/BertLayer[11]/BertAttention[attention]/BertSelfAttention[self]/view_3" type="View"><data metatype="ReshapeOp" /><input><port id="0"><dim>32</dim><dim>128</dim><dim>12</dim><dim>64</dim></port></input><output><port id="0"><dim>32</dim><dim>128</dim><dim>768</dim></port></output></layer><layer id="512" name="BertForSequenceClassification/BertModel[bert]/BertEncoder[encoder]/ModuleList[layer]/BertLayer[11]/BertAttention[attention]/BertSelfOutput[output]/NNCFLinear[dense]/ModuleDict[pre_ops]/UpdateWeight[0]/SymmetricQuantizer[op]/symmetric_quantize_0" type="Symmetric_Quantize"><data metatype="unknown" /><output><port id="0"><dim>768</dim><dim>768</dim></port></output></layer><layer id="513" name="BertForSequenceClassification/BertModel[bert]/BertEncoder[encoder]/ModuleList[layer]/BertLayer[11]/BertAttention[attention]/BertSelfOutput[output]/NNCFLinear[dense]/linear_0" type="Linear"><data metatype="LinearOp" /><input><port id="0"><dim>32</dim><dim>128</dim><dim>768</dim></port><port id="1"><dim>768</dim><dim>768</dim></port></input><output><port id="0"><dim>32</dim><dim>128</dim><dim>768</dim></port></output></layer><layer id="514" name="BertForSequenceClassification/BertModel[bert]/BertEncoder[encoder]/ModuleList[layer]/BertLayer[11]/BertAttention[attention]/BertSelfOutput[output]/Dropout[dropout]/dropout_0" type="Dropout"><data metatype="DropoutOp" /><input><port id="0"><dim>32</dim><dim>128</dim><dim>768</dim></port></input><output><port id="0"><dim>32</dim><dim>128</dim><dim>768</dim></port></output></layer><layer id="515" name="BertForSequenceClassification/BertModel[bert]/BertEncoder[encoder]/ModuleList[layer]/BertLayer[11]/BertAttention[attention]/BertSelfOutput[output]/__add___0" type="__Add__"><data metatype="AddOp" /><input><port id="0"><dim>32</dim><dim>128</dim><dim>768</dim></port><port id="1"><dim>32</dim><dim>128</dim><dim>768</dim></port></input><output><port id="0"><dim>32</dim><dim>128</dim><dim>768</dim></port></output></layer><layer id="516" name="BertForSequenceClassification/BertModel[bert]/BertEncoder[encoder]/ModuleList[layer]/BertLayer[11]/BertAttention[attention]/BertSelfOutput[output]/NNCFLayerNorm[LayerNorm]/layer_norm_0" type="Layer_Norm"><data metatype="LayerNormOp" /><input><port id="0"><dim>32</dim><dim>128</dim><dim>768</dim></port></input><output><port id="0"><dim>32</dim><dim>128</dim><dim>768</dim></port><port id="0"><dim>32</dim><dim>128</dim><dim>768</dim></port></output></layer><layer id="517" name="BertForSequenceClassification/BertModel[bert]/BertEncoder[encoder]/ModuleList[layer]/BertLayer[11]/BertIntermediate[intermediate]/NNCFLinear[dense]/ModuleDict[pre_ops]/UpdateWeight[0]/SymmetricQuantizer[op]/symmetric_quantize_0" type="Symmetric_Quantize"><data metatype="unknown" /><output><port id="0"><dim>3072</dim><dim>768</dim></port></output></layer><layer id="518" name="BertForSequenceClassification/BertModel[bert]/BertEncoder[encoder]/ModuleList[layer]/BertLayer[11]/BertIntermediate[intermediate]/NNCFLinear[dense]/SymmetricQuantizer/symmetric_quantize_0" type="Symmetric_Quantize"><data metatype="unknown" /><input><port id="0"><dim>32</dim><dim>128</dim><dim>768</dim></port></input><output><port id="0"><dim>32</dim><dim>128</dim><dim>768</dim></port></output></layer><layer id="519" name="BertForSequenceClassification/BertModel[bert]/BertEncoder[encoder]/ModuleList[layer]/BertLayer[11]/BertIntermediate[intermediate]/NNCFLinear[dense]/linear_0" type="Linear"><data metatype="LinearOp" /><input><port id="0"><dim>32</dim><dim>128</dim><dim>768</dim></port><port id="1"><dim>3072</dim><dim>768</dim></port></input><output><port id="0"><dim>32</dim><dim>128</dim><dim>3072</dim></port></output></layer><layer id="520" name="BertForSequenceClassification/BertModel[bert]/BertEncoder[encoder]/ModuleList[layer]/BertLayer[11]/BertIntermediate[intermediate]/GELUActivation[intermediate_act_fn]/gelu_0" type="Gelu"><data metatype="GeluOp" /><input><port id="0"><dim>32</dim><dim>128</dim><dim>3072</dim></port></input><output><port id="0"><dim>32</dim><dim>128</dim><dim>3072</dim></port></output></layer><layer id="521" name="BertForSequenceClassification/BertModel[bert]/BertEncoder[encoder]/ModuleList[layer]/BertLayer[11]/BertIntermediate[intermediate]/GELUActivation[intermediate_act_fn]/SymmetricQuantizer/symmetric_quantize_0" type="Symmetric_Quantize"><data metatype="unknown" /><input><port id="0"><dim>32</dim><dim>128</dim><dim>3072</dim></port></input><output><port id="0"><dim>32</dim><dim>128</dim><dim>3072</dim></port></output></layer><layer id="522" name="BertForSequenceClassification/BertModel[bert]/BertEncoder[encoder]/ModuleList[layer]/BertLayer[11]/BertOutput[output]/NNCFLinear[dense]/ModuleDict[pre_ops]/UpdateWeight[0]/SymmetricQuantizer[op]/symmetric_quantize_0" type="Symmetric_Quantize"><data metatype="unknown" /><output><port id="0"><dim>768</dim><dim>3072</dim></port></output></layer><layer id="523" name="BertForSequenceClassification/BertModel[bert]/BertEncoder[encoder]/ModuleList[layer]/BertLayer[11]/BertOutput[output]/NNCFLinear[dense]/linear_0" type="Linear"><data metatype="LinearOp" /><input><port id="0"><dim>32</dim><dim>128</dim><dim>3072</dim></port><port id="1"><dim>768</dim><dim>3072</dim></port></input><output><port id="0"><dim>32</dim><dim>128</dim><dim>768</dim></port></output></layer><layer id="524" name="BertForSequenceClassification/BertModel[bert]/BertEncoder[encoder]/ModuleList[layer]/BertLayer[11]/BertOutput[output]/Dropout[dropout]/dropout_0" type="Dropout"><data metatype="DropoutOp" /><input><port id="0"><dim>32</dim><dim>128</dim><dim>768</dim></port></input><output><port id="0"><dim>32</dim><dim>128</dim><dim>768</dim></port></output></layer><layer id="525" name="BertForSequenceClassification/BertModel[bert]/BertEncoder[encoder]/ModuleList[layer]/BertLayer[11]/BertOutput[output]/__add___0" type="__Add__"><data metatype="AddOp" /><input><port id="0"><dim>32</dim><dim>128</dim><dim>768</dim></port><port id="1"><dim>32</dim><dim>128</dim><dim>768</dim></port></input><output><port id="0"><dim>32</dim><dim>128</dim><dim>768</dim></port></output></layer><layer id="526" name="BertForSequenceClassification/BertModel[bert]/BertEncoder[encoder]/ModuleList[layer]/BertLayer[11]/BertOutput[output]/NNCFLayerNorm[LayerNorm]/layer_norm_0" type="Layer_Norm"><data metatype="LayerNormOp" /><input><port id="0"><dim>32</dim><dim>128</dim><dim>768</dim></port></input><output><port id="0"><dim>32</dim><dim>128</dim><dim>768</dim></port></output></layer><layer id="527" name="BertForSequenceClassification/BertModel[bert]/BertEncoder[encoder]/ModuleList[layer]/BertLayer[11]/BertOutput[output]/NNCFLayerNorm[LayerNorm]/SymmetricQuantizer/symmetric_quantize_0" type="Symmetric_Quantize"><data metatype="unknown" /><input><port id="0"><dim>32</dim><dim>128</dim><dim>768</dim></port></input><output><port id="0"><dim>32</dim><dim>128</dim><dim>768</dim></port></output></layer><layer id="528" name="BertForSequenceClassification/BertModel[bert]/BertPooler[pooler]/__getitem___0" type="__Getitem__"><data metatype="GatherOp" /><input><port id="0"><dim>32</dim><dim>128</dim><dim>768</dim></port></input><output><port id="0"><dim>32</dim><dim>768</dim></port></output></layer><layer id="529" name="BertForSequenceClassification/BertModel[bert]/BertPooler[pooler]/NNCFLinear[dense]/ModuleDict[pre_ops]/UpdateWeight[0]/SymmetricQuantizer[op]/symmetric_quantize_0" type="Symmetric_Quantize"><data metatype="unknown" /><output><port id="0"><dim>768</dim><dim>768</dim></port></output></layer><layer id="530" name="BertForSequenceClassification/BertModel[bert]/BertPooler[pooler]/NNCFLinear[dense]/linear_0" type="Linear"><data metatype="LinearOp" /><input><port id="0"><dim>32</dim><dim>768</dim></port><port id="1"><dim>768</dim><dim>768</dim></port></input><output><port id="0"><dim>32</dim><dim>768</dim></port></output></layer><layer id="531" name="BertForSequenceClassification/BertModel[bert]/BertPooler[pooler]/NNCFLinear[dense]/SymmetricQuantizer/symmetric_quantize_0" type="Symmetric_Quantize"><data metatype="unknown" /><input><port id="0"><dim>32</dim><dim>768</dim></port></input><output><port id="0"><dim>32</dim><dim>768</dim></port></output></layer><layer id="532" name="BertForSequenceClassification/BertModel[bert]/BertPooler[pooler]/Tanh[activation]/tanh_0" type="Tanh"><data metatype="TanhOp" /><input><port id="0"><dim>32</dim><dim>768</dim></port></input><output><port id="0"><dim>32</dim><dim>768</dim></port></output></layer><layer id="533" name="BertForSequenceClassification/BertModel[bert]/BertPooler[pooler]/Tanh[activation]/SymmetricQuantizer/symmetric_quantize_0" type="Symmetric_Quantize"><data metatype="unknown" /><input><port id="0"><dim>32</dim><dim>768</dim></port></input><output><port id="0"><dim>32</dim><dim>768</dim></port></output></layer><layer id="534" name="BertForSequenceClassification/Dropout[dropout]/dropout_0" type="Dropout"><data metatype="DropoutOp" /><input><port id="0"><dim>32</dim><dim>768</dim></port></input><output><port id="0"><dim>32</dim><dim>768</dim></port></output></layer><layer id="535" name="BertForSequenceClassification/NNCFLinear[classifier]/ModuleDict[pre_ops]/UpdateWeight[0]/SymmetricQuantizer[op]/symmetric_quantize_0" type="Symmetric_Quantize"><data metatype="unknown" /><output><port id="0"><dim>3</dim><dim>768</dim></port></output></layer><layer id="536" name="BertForSequenceClassification/NNCFLinear[classifier]/linear_0" type="Linear"><data metatype="LinearOp" /><input><port id="0"><dim>32</dim><dim>768</dim></port><port id="1"><dim>3</dim><dim>768</dim></port></input><output><port id="0"><dim>32</dim><dim>3</dim></port></output></layer><layer id="537" name="/nncf_model_output_0" type="Nncf_Model_Output"><data metatype="output_noop" /><input><port id="0"><dim>32</dim><dim>3</dim></port></input></layer></layers><edges><edge from-layer="1" from-port="0" to-layer="3" to-port="0" /><edge from-layer="0" from-port="0" to-layer="4" to-port="0" /><edge from-layer="2" from-port="0" to-layer="5" to-port="0" /><edge from-layer="4" from-port="0" to-layer="6" to-port="0" /><edge from-layer="5" from-port="0" to-layer="6" to-port="1" /><edge from-layer="6" from-port="0" to-layer="8" to-port="0" /><edge from-layer="7" from-port="0" to-layer="8" to-port="1" /><edge from-layer="8" from-port="0" to-layer="9" to-port="0" /><edge from-layer="9" from-port="0" to-layer="10" to-port="0" /><edge from-layer="10" from-port="0" to-layer="12" to-port="0" /><edge from-layer="12" from-port="0" to-layer="13" to-port="0" /><edge from-layer="11" from-port="0" to-layer="13" to-port="1" /><edge from-layer="13" from-port="0" to-layer="14" to-port="0" /><edge from-layer="10" from-port="0" to-layer="16" to-port="0" /><edge from-layer="16" from-port="0" to-layer="17" to-port="0" /><edge from-layer="15" from-port="0" to-layer="17" to-port="1" /><edge from-layer="17" from-port="0" to-layer="18" to-port="0" /><edge from-layer="18" from-port="0" to-layer="19" to-port="0" /><edge from-layer="19" from-port="0" to-layer="20" to-port="0" /><edge from-layer="10" from-port="0" to-layer="22" to-port="0" /><edge from-layer="22" from-port="0" to-layer="23" to-port="0" /><edge from-layer="21" from-port="0" to-layer="23" to-port="1" /><edge from-layer="23" from-port="0" to-layer="24" to-port="0" /><edge from-layer="24" from-port="0" to-layer="25" to-port="0" /><edge from-layer="14" from-port="0" to-layer="26" to-port="0" /><edge from-layer="26" from-port="0" to-layer="27" to-port="0" /><edge from-layer="20" from-port="0" to-layer="28" to-port="0" /><edge from-layer="27" from-port="0" to-layer="29" to-port="0" /><edge from-layer="28" from-port="0" to-layer="29" to-port="1" /><edge from-layer="29" from-port="0" to-layer="30" to-port="0" /><edge from-layer="30" from-port="0" to-layer="31" to-port="0" /><edge from-layer="31" from-port="0" to-layer="32" to-port="0" /><edge from-layer="32" from-port="0" to-layer="33" to-port="0" /><edge from-layer="33" from-port="0" to-layer="34" to-port="0" /><edge from-layer="25" from-port="0" to-layer="34" to-port="1" /><edge from-layer="34" from-port="0" to-layer="35" to-port="0" /><edge from-layer="35" from-port="0" to-layer="36" to-port="0" /><edge from-layer="36" from-port="0" to-layer="37" to-port="0" /><edge from-layer="37" from-port="0" to-layer="38" to-port="0" /><edge from-layer="38" from-port="0" to-layer="40" to-port="0" /><edge from-layer="39" from-port="0" to-layer="40" to-port="1" /><edge from-layer="40" from-port="0" to-layer="41" to-port="0" /><edge from-layer="41" from-port="0" to-layer="42" to-port="0" /><edge from-layer="10" from-port="0" to-layer="42" to-port="1" /><edge from-layer="42" from-port="0" to-layer="43" to-port="0" /><edge from-layer="43" from-port="0" to-layer="45" to-port="0" /><edge from-layer="45" from-port="0" to-layer="46" to-port="0" /><edge from-layer="44" from-port="0" to-layer="46" to-port="1" /><edge from-layer="46" from-port="0" to-layer="47" to-port="0" /><edge from-layer="47" from-port="0" to-layer="48" to-port="0" /><edge from-layer="48" from-port="0" to-layer="50" to-port="0" /><edge from-layer="49" from-port="0" to-layer="50" to-port="1" /><edge from-layer="50" from-port="0" to-layer="51" to-port="0" /><edge from-layer="51" from-port="0" to-layer="52" to-port="0" /><edge from-layer="43" from-port="0" to-layer="52" to-port="1" /><edge from-layer="52" from-port="0" to-layer="53" to-port="0" /><edge from-layer="53" from-port="0" to-layer="55" to-port="0" /><edge from-layer="55" from-port="0" to-layer="56" to-port="0" /><edge from-layer="54" from-port="0" to-layer="56" to-port="1" /><edge from-layer="56" from-port="0" to-layer="57" to-port="0" /><edge from-layer="53" from-port="0" to-layer="59" to-port="0" /><edge from-layer="59" from-port="0" to-layer="60" to-port="0" /><edge from-layer="58" from-port="0" to-layer="60" to-port="1" /><edge from-layer="60" from-port="0" to-layer="61" to-port="0" /><edge from-layer="61" from-port="0" to-layer="62" to-port="0" /><edge from-layer="62" from-port="0" to-layer="63" to-port="0" /><edge from-layer="53" from-port="0" to-layer="65" to-port="0" /><edge from-layer="65" from-port="0" to-layer="66" to-port="0" /><edge from-layer="64" from-port="0" to-layer="66" to-port="1" /><edge from-layer="66" from-port="0" to-layer="67" to-port="0" /><edge from-layer="67" from-port="0" to-layer="68" to-port="0" /><edge from-layer="57" from-port="0" to-layer="69" to-port="0" /><edge from-layer="69" from-port="0" to-layer="70" to-port="0" /><edge from-layer="63" from-port="0" to-layer="71" to-port="0" /><edge from-layer="70" from-port="0" to-layer="72" to-port="0" /><edge from-layer="71" from-port="0" to-layer="72" to-port="1" /><edge from-layer="72" from-port="0" to-layer="73" to-port="0" /><edge from-layer="73" from-port="0" to-layer="74" to-port="0" /><edge from-layer="74" from-port="0" to-layer="75" to-port="0" /><edge from-layer="75" from-port="0" to-layer="76" to-port="0" /><edge from-layer="76" from-port="0" to-layer="77" to-port="0" /><edge from-layer="68" from-port="0" to-layer="77" to-port="1" /><edge from-layer="77" from-port="0" to-layer="78" to-port="0" /><edge from-layer="78" from-port="0" to-layer="79" to-port="0" /><edge from-layer="79" from-port="0" to-layer="80" to-port="0" /><edge from-layer="80" from-port="0" to-layer="81" to-port="0" /><edge from-layer="81" from-port="0" to-layer="83" to-port="0" /><edge from-layer="82" from-port="0" to-layer="83" to-port="1" /><edge from-layer="83" from-port="0" to-layer="84" to-port="0" /><edge from-layer="84" from-port="0" to-layer="85" to-port="0" /><edge from-layer="53" from-port="0" to-layer="85" to-port="1" /><edge from-layer="85" from-port="0" to-layer="86" to-port="0" /><edge from-layer="86" from-port="0" to-layer="88" to-port="0" /><edge from-layer="88" from-port="0" to-layer="89" to-port="0" /><edge from-layer="87" from-port="0" to-layer="89" to-port="1" /><edge from-layer="89" from-port="0" to-layer="90" to-port="0" /><edge from-layer="90" from-port="0" to-layer="91" to-port="0" /><edge from-layer="91" from-port="0" to-layer="93" to-port="0" /><edge from-layer="92" from-port="0" to-layer="93" to-port="1" /><edge from-layer="93" from-port="0" to-layer="94" to-port="0" /><edge from-layer="94" from-port="0" to-layer="95" to-port="0" /><edge from-layer="86" from-port="0" to-layer="95" to-port="1" /><edge from-layer="95" from-port="0" to-layer="96" to-port="0" /><edge from-layer="96" from-port="0" to-layer="98" to-port="0" /><edge from-layer="98" from-port="0" to-layer="99" to-port="0" /><edge from-layer="97" from-port="0" to-layer="99" to-port="1" /><edge from-layer="99" from-port="0" to-layer="100" to-port="0" /><edge from-layer="96" from-port="0" to-layer="102" to-port="0" /><edge from-layer="102" from-port="0" to-layer="103" to-port="0" /><edge from-layer="101" from-port="0" to-layer="103" to-port="1" /><edge from-layer="103" from-port="0" to-layer="104" to-port="0" /><edge from-layer="104" from-port="0" to-layer="105" to-port="0" /><edge from-layer="105" from-port="0" to-layer="106" to-port="0" /><edge from-layer="96" from-port="0" to-layer="108" to-port="0" /><edge from-layer="108" from-port="0" to-layer="109" to-port="0" /><edge from-layer="107" from-port="0" to-layer="109" to-port="1" /><edge from-layer="109" from-port="0" to-layer="110" to-port="0" /><edge from-layer="110" from-port="0" to-layer="111" to-port="0" /><edge from-layer="100" from-port="0" to-layer="112" to-port="0" /><edge from-layer="112" from-port="0" to-layer="113" to-port="0" /><edge from-layer="106" from-port="0" to-layer="114" to-port="0" /><edge from-layer="113" from-port="0" to-layer="115" to-port="0" /><edge from-layer="114" from-port="0" to-layer="115" to-port="1" /><edge from-layer="115" from-port="0" to-layer="116" to-port="0" /><edge from-layer="116" from-port="0" to-layer="117" to-port="0" /><edge from-layer="117" from-port="0" to-layer="118" to-port="0" /><edge from-layer="118" from-port="0" to-layer="119" to-port="0" /><edge from-layer="119" from-port="0" to-layer="120" to-port="0" /><edge from-layer="111" from-port="0" to-layer="120" to-port="1" /><edge from-layer="120" from-port="0" to-layer="121" to-port="0" /><edge from-layer="121" from-port="0" to-layer="122" to-port="0" /><edge from-layer="122" from-port="0" to-layer="123" to-port="0" /><edge from-layer="123" from-port="0" to-layer="124" to-port="0" /><edge from-layer="124" from-port="0" to-layer="126" to-port="0" /><edge from-layer="125" from-port="0" to-layer="126" to-port="1" /><edge from-layer="126" from-port="0" to-layer="127" to-port="0" /><edge from-layer="127" from-port="0" to-layer="128" to-port="0" /><edge from-layer="96" from-port="0" to-layer="128" to-port="1" /><edge from-layer="128" from-port="0" to-layer="129" to-port="0" /><edge from-layer="129" from-port="0" to-layer="131" to-port="0" /><edge from-layer="131" from-port="0" to-layer="132" to-port="0" /><edge from-layer="130" from-port="0" to-layer="132" to-port="1" /><edge from-layer="132" from-port="0" to-layer="133" to-port="0" /><edge from-layer="133" from-port="0" to-layer="134" to-port="0" /><edge from-layer="134" from-port="0" to-layer="136" to-port="0" /><edge from-layer="135" from-port="0" to-layer="136" to-port="1" /><edge from-layer="136" from-port="0" to-layer="137" to-port="0" /><edge from-layer="137" from-port="0" to-layer="138" to-port="0" /><edge from-layer="129" from-port="0" to-layer="138" to-port="1" /><edge from-layer="138" from-port="0" to-layer="139" to-port="0" /><edge from-layer="139" from-port="0" to-layer="141" to-port="0" /><edge from-layer="141" from-port="0" to-layer="142" to-port="0" /><edge from-layer="140" from-port="0" to-layer="142" to-port="1" /><edge from-layer="142" from-port="0" to-layer="143" to-port="0" /><edge from-layer="139" from-port="0" to-layer="145" to-port="0" /><edge from-layer="145" from-port="0" to-layer="146" to-port="0" /><edge from-layer="144" from-port="0" to-layer="146" to-port="1" /><edge from-layer="146" from-port="0" to-layer="147" to-port="0" /><edge from-layer="147" from-port="0" to-layer="148" to-port="0" /><edge from-layer="148" from-port="0" to-layer="149" to-port="0" /><edge from-layer="139" from-port="0" to-layer="151" to-port="0" /><edge from-layer="151" from-port="0" to-layer="152" to-port="0" /><edge from-layer="150" from-port="0" to-layer="152" to-port="1" /><edge from-layer="152" from-port="0" to-layer="153" to-port="0" /><edge from-layer="153" from-port="0" to-layer="154" to-port="0" /><edge from-layer="143" from-port="0" to-layer="155" to-port="0" /><edge from-layer="155" from-port="0" to-layer="156" to-port="0" /><edge from-layer="149" from-port="0" to-layer="157" to-port="0" /><edge from-layer="156" from-port="0" to-layer="158" to-port="0" /><edge from-layer="157" from-port="0" to-layer="158" to-port="1" /><edge from-layer="158" from-port="0" to-layer="159" to-port="0" /><edge from-layer="159" from-port="0" to-layer="160" to-port="0" /><edge from-layer="160" from-port="0" to-layer="161" to-port="0" /><edge from-layer="161" from-port="0" to-layer="162" to-port="0" /><edge from-layer="162" from-port="0" to-layer="163" to-port="0" /><edge from-layer="154" from-port="0" to-layer="163" to-port="1" /><edge from-layer="163" from-port="0" to-layer="164" to-port="0" /><edge from-layer="164" from-port="0" to-layer="165" to-port="0" /><edge from-layer="165" from-port="0" to-layer="166" to-port="0" /><edge from-layer="166" from-port="0" to-layer="167" to-port="0" /><edge from-layer="167" from-port="0" to-layer="169" to-port="0" /><edge from-layer="168" from-port="0" to-layer="169" to-port="1" /><edge from-layer="169" from-port="0" to-layer="170" to-port="0" /><edge from-layer="170" from-port="0" to-layer="171" to-port="0" /><edge from-layer="139" from-port="0" to-layer="171" to-port="1" /><edge from-layer="171" from-port="0" to-layer="172" to-port="0" /><edge from-layer="172" from-port="0" to-layer="174" to-port="0" /><edge from-layer="174" from-port="0" to-layer="175" to-port="0" /><edge from-layer="173" from-port="0" to-layer="175" to-port="1" /><edge from-layer="175" from-port="0" to-layer="176" to-port="0" /><edge from-layer="176" from-port="0" to-layer="177" to-port="0" /><edge from-layer="177" from-port="0" to-layer="179" to-port="0" /><edge from-layer="178" from-port="0" to-layer="179" to-port="1" /><edge from-layer="179" from-port="0" to-layer="180" to-port="0" /><edge from-layer="180" from-port="0" to-layer="181" to-port="0" /><edge from-layer="172" from-port="0" to-layer="181" to-port="1" /><edge from-layer="181" from-port="0" to-layer="182" to-port="0" /><edge from-layer="182" from-port="0" to-layer="184" to-port="0" /><edge from-layer="184" from-port="0" to-layer="185" to-port="0" /><edge from-layer="183" from-port="0" to-layer="185" to-port="1" /><edge from-layer="185" from-port="0" to-layer="186" to-port="0" /><edge from-layer="182" from-port="0" to-layer="188" to-port="0" /><edge from-layer="188" from-port="0" to-layer="189" to-port="0" /><edge from-layer="187" from-port="0" to-layer="189" to-port="1" /><edge from-layer="189" from-port="0" to-layer="190" to-port="0" /><edge from-layer="190" from-port="0" to-layer="191" to-port="0" /><edge from-layer="191" from-port="0" to-layer="192" to-port="0" /><edge from-layer="182" from-port="0" to-layer="194" to-port="0" /><edge from-layer="194" from-port="0" to-layer="195" to-port="0" /><edge from-layer="193" from-port="0" to-layer="195" to-port="1" /><edge from-layer="195" from-port="0" to-layer="196" to-port="0" /><edge from-layer="196" from-port="0" to-layer="197" to-port="0" /><edge from-layer="186" from-port="0" to-layer="198" to-port="0" /><edge from-layer="198" from-port="0" to-layer="199" to-port="0" /><edge from-layer="192" from-port="0" to-layer="200" to-port="0" /><edge from-layer="199" from-port="0" to-layer="201" to-port="0" /><edge from-layer="200" from-port="0" to-layer="201" to-port="1" /><edge from-layer="201" from-port="0" to-layer="202" to-port="0" /><edge from-layer="202" from-port="0" to-layer="203" to-port="0" /><edge from-layer="203" from-port="0" to-layer="204" to-port="0" /><edge from-layer="204" from-port="0" to-layer="205" to-port="0" /><edge from-layer="205" from-port="0" to-layer="206" to-port="0" /><edge from-layer="197" from-port="0" to-layer="206" to-port="1" /><edge from-layer="206" from-port="0" to-layer="207" to-port="0" /><edge from-layer="207" from-port="0" to-layer="208" to-port="0" /><edge from-layer="208" from-port="0" to-layer="209" to-port="0" /><edge from-layer="209" from-port="0" to-layer="210" to-port="0" /><edge from-layer="210" from-port="0" to-layer="212" to-port="0" /><edge from-layer="211" from-port="0" to-layer="212" to-port="1" /><edge from-layer="212" from-port="0" to-layer="213" to-port="0" /><edge from-layer="213" from-port="0" to-layer="214" to-port="0" /><edge from-layer="182" from-port="0" to-layer="214" to-port="1" /><edge from-layer="214" from-port="0" to-layer="215" to-port="0" /><edge from-layer="215" from-port="0" to-layer="217" to-port="0" /><edge from-layer="217" from-port="0" to-layer="218" to-port="0" /><edge from-layer="216" from-port="0" to-layer="218" to-port="1" /><edge from-layer="218" from-port="0" to-layer="219" to-port="0" /><edge from-layer="219" from-port="0" to-layer="220" to-port="0" /><edge from-layer="220" from-port="0" to-layer="222" to-port="0" /><edge from-layer="221" from-port="0" to-layer="222" to-port="1" /><edge from-layer="222" from-port="0" to-layer="223" to-port="0" /><edge from-layer="223" from-port="0" to-layer="224" to-port="0" /><edge from-layer="215" from-port="0" to-layer="224" to-port="1" /><edge from-layer="224" from-port="0" to-layer="225" to-port="0" /><edge from-layer="225" from-port="0" to-layer="227" to-port="0" /><edge from-layer="227" from-port="0" to-layer="228" to-port="0" /><edge from-layer="226" from-port="0" to-layer="228" to-port="1" /><edge from-layer="228" from-port="0" to-layer="229" to-port="0" /><edge from-layer="225" from-port="0" to-layer="231" to-port="0" /><edge from-layer="231" from-port="0" to-layer="232" to-port="0" /><edge from-layer="230" from-port="0" to-layer="232" to-port="1" /><edge from-layer="232" from-port="0" to-layer="233" to-port="0" /><edge from-layer="233" from-port="0" to-layer="234" to-port="0" /><edge from-layer="234" from-port="0" to-layer="235" to-port="0" /><edge from-layer="225" from-port="0" to-layer="237" to-port="0" /><edge from-layer="237" from-port="0" to-layer="238" to-port="0" /><edge from-layer="236" from-port="0" to-layer="238" to-port="1" /><edge from-layer="238" from-port="0" to-layer="239" to-port="0" /><edge from-layer="239" from-port="0" to-layer="240" to-port="0" /><edge from-layer="229" from-port="0" to-layer="241" to-port="0" /><edge from-layer="241" from-port="0" to-layer="242" to-port="0" /><edge from-layer="235" from-port="0" to-layer="243" to-port="0" /><edge from-layer="242" from-port="0" to-layer="244" to-port="0" /><edge from-layer="243" from-port="0" to-layer="244" to-port="1" /><edge from-layer="244" from-port="0" to-layer="245" to-port="0" /><edge from-layer="245" from-port="0" to-layer="246" to-port="0" /><edge from-layer="246" from-port="0" to-layer="247" to-port="0" /><edge from-layer="247" from-port="0" to-layer="248" to-port="0" /><edge from-layer="248" from-port="0" to-layer="249" to-port="0" /><edge from-layer="240" from-port="0" to-layer="249" to-port="1" /><edge from-layer="249" from-port="0" to-layer="250" to-port="0" /><edge from-layer="250" from-port="0" to-layer="251" to-port="0" /><edge from-layer="251" from-port="0" to-layer="252" to-port="0" /><edge from-layer="252" from-port="0" to-layer="253" to-port="0" /><edge from-layer="253" from-port="0" to-layer="255" to-port="0" /><edge from-layer="254" from-port="0" to-layer="255" to-port="1" /><edge from-layer="255" from-port="0" to-layer="256" to-port="0" /><edge from-layer="256" from-port="0" to-layer="257" to-port="0" /><edge from-layer="225" from-port="0" to-layer="257" to-port="1" /><edge from-layer="257" from-port="0" to-layer="258" to-port="0" /><edge from-layer="258" from-port="0" to-layer="260" to-port="0" /><edge from-layer="260" from-port="0" to-layer="261" to-port="0" /><edge from-layer="259" from-port="0" to-layer="261" to-port="1" /><edge from-layer="261" from-port="0" to-layer="262" to-port="0" /><edge from-layer="262" from-port="0" to-layer="263" to-port="0" /><edge from-layer="263" from-port="0" to-layer="265" to-port="0" /><edge from-layer="264" from-port="0" to-layer="265" to-port="1" /><edge from-layer="265" from-port="0" to-layer="266" to-port="0" /><edge from-layer="266" from-port="0" to-layer="267" to-port="0" /><edge from-layer="258" from-port="0" to-layer="267" to-port="1" /><edge from-layer="267" from-port="0" to-layer="268" to-port="0" /><edge from-layer="268" from-port="0" to-layer="270" to-port="0" /><edge from-layer="270" from-port="0" to-layer="271" to-port="0" /><edge from-layer="269" from-port="0" to-layer="271" to-port="1" /><edge from-layer="271" from-port="0" to-layer="272" to-port="0" /><edge from-layer="268" from-port="0" to-layer="274" to-port="0" /><edge from-layer="274" from-port="0" to-layer="275" to-port="0" /><edge from-layer="273" from-port="0" to-layer="275" to-port="1" /><edge from-layer="275" from-port="0" to-layer="276" to-port="0" /><edge from-layer="276" from-port="0" to-layer="277" to-port="0" /><edge from-layer="277" from-port="0" to-layer="278" to-port="0" /><edge from-layer="268" from-port="0" to-layer="280" to-port="0" /><edge from-layer="280" from-port="0" to-layer="281" to-port="0" /><edge from-layer="279" from-port="0" to-layer="281" to-port="1" /><edge from-layer="281" from-port="0" to-layer="282" to-port="0" /><edge from-layer="282" from-port="0" to-layer="283" to-port="0" /><edge from-layer="272" from-port="0" to-layer="284" to-port="0" /><edge from-layer="284" from-port="0" to-layer="285" to-port="0" /><edge from-layer="278" from-port="0" to-layer="286" to-port="0" /><edge from-layer="285" from-port="0" to-layer="287" to-port="0" /><edge from-layer="286" from-port="0" to-layer="287" to-port="1" /><edge from-layer="287" from-port="0" to-layer="288" to-port="0" /><edge from-layer="288" from-port="0" to-layer="289" to-port="0" /><edge from-layer="289" from-port="0" to-layer="290" to-port="0" /><edge from-layer="290" from-port="0" to-layer="291" to-port="0" /><edge from-layer="291" from-port="0" to-layer="292" to-port="0" /><edge from-layer="283" from-port="0" to-layer="292" to-port="1" /><edge from-layer="292" from-port="0" to-layer="293" to-port="0" /><edge from-layer="293" from-port="0" to-layer="294" to-port="0" /><edge from-layer="294" from-port="0" to-layer="295" to-port="0" /><edge from-layer="295" from-port="0" to-layer="296" to-port="0" /><edge from-layer="296" from-port="0" to-layer="298" to-port="0" /><edge from-layer="297" from-port="0" to-layer="298" to-port="1" /><edge from-layer="298" from-port="0" to-layer="299" to-port="0" /><edge from-layer="299" from-port="0" to-layer="300" to-port="0" /><edge from-layer="268" from-port="0" to-layer="300" to-port="1" /><edge from-layer="300" from-port="0" to-layer="301" to-port="0" /><edge from-layer="301" from-port="0" to-layer="303" to-port="0" /><edge from-layer="303" from-port="0" to-layer="304" to-port="0" /><edge from-layer="302" from-port="0" to-layer="304" to-port="1" /><edge from-layer="304" from-port="0" to-layer="305" to-port="0" /><edge from-layer="305" from-port="0" to-layer="306" to-port="0" /><edge from-layer="306" from-port="0" to-layer="308" to-port="0" /><edge from-layer="307" from-port="0" to-layer="308" to-port="1" /><edge from-layer="308" from-port="0" to-layer="309" to-port="0" /><edge from-layer="309" from-port="0" to-layer="310" to-port="0" /><edge from-layer="301" from-port="0" to-layer="310" to-port="1" /><edge from-layer="310" from-port="0" to-layer="311" to-port="0" /><edge from-layer="311" from-port="0" to-layer="313" to-port="0" /><edge from-layer="313" from-port="0" to-layer="314" to-port="0" /><edge from-layer="312" from-port="0" to-layer="314" to-port="1" /><edge from-layer="314" from-port="0" to-layer="315" to-port="0" /><edge from-layer="311" from-port="0" to-layer="317" to-port="0" /><edge from-layer="317" from-port="0" to-layer="318" to-port="0" /><edge from-layer="316" from-port="0" to-layer="318" to-port="1" /><edge from-layer="318" from-port="0" to-layer="319" to-port="0" /><edge from-layer="319" from-port="0" to-layer="320" to-port="0" /><edge from-layer="320" from-port="0" to-layer="321" to-port="0" /><edge from-layer="311" from-port="0" to-layer="323" to-port="0" /><edge from-layer="323" from-port="0" to-layer="324" to-port="0" /><edge from-layer="322" from-port="0" to-layer="324" to-port="1" /><edge from-layer="324" from-port="0" to-layer="325" to-port="0" /><edge from-layer="325" from-port="0" to-layer="326" to-port="0" /><edge from-layer="315" from-port="0" to-layer="327" to-port="0" /><edge from-layer="327" from-port="0" to-layer="328" to-port="0" /><edge from-layer="321" from-port="0" to-layer="329" to-port="0" /><edge from-layer="328" from-port="0" to-layer="330" to-port="0" /><edge from-layer="329" from-port="0" to-layer="330" to-port="1" /><edge from-layer="330" from-port="0" to-layer="331" to-port="0" /><edge from-layer="331" from-port="0" to-layer="332" to-port="0" /><edge from-layer="332" from-port="0" to-layer="333" to-port="0" /><edge from-layer="333" from-port="0" to-layer="334" to-port="0" /><edge from-layer="334" from-port="0" to-layer="335" to-port="0" /><edge from-layer="326" from-port="0" to-layer="335" to-port="1" /><edge from-layer="335" from-port="0" to-layer="336" to-port="0" /><edge from-layer="336" from-port="0" to-layer="337" to-port="0" /><edge from-layer="337" from-port="0" to-layer="338" to-port="0" /><edge from-layer="338" from-port="0" to-layer="339" to-port="0" /><edge from-layer="339" from-port="0" to-layer="341" to-port="0" /><edge from-layer="340" from-port="0" to-layer="341" to-port="1" /><edge from-layer="341" from-port="0" to-layer="342" to-port="0" /><edge from-layer="342" from-port="0" to-layer="343" to-port="0" /><edge from-layer="311" from-port="0" to-layer="343" to-port="1" /><edge from-layer="343" from-port="0" to-layer="344" to-port="0" /><edge from-layer="344" from-port="0" to-layer="346" to-port="0" /><edge from-layer="346" from-port="0" to-layer="347" to-port="0" /><edge from-layer="345" from-port="0" to-layer="347" to-port="1" /><edge from-layer="347" from-port="0" to-layer="348" to-port="0" /><edge from-layer="348" from-port="0" to-layer="349" to-port="0" /><edge from-layer="349" from-port="0" to-layer="351" to-port="0" /><edge from-layer="350" from-port="0" to-layer="351" to-port="1" /><edge from-layer="351" from-port="0" to-layer="352" to-port="0" /><edge from-layer="352" from-port="0" to-layer="353" to-port="0" /><edge from-layer="344" from-port="0" to-layer="353" to-port="1" /><edge from-layer="353" from-port="0" to-layer="354" to-port="0" /><edge from-layer="354" from-port="0" to-layer="356" to-port="0" /><edge from-layer="356" from-port="0" to-layer="357" to-port="0" /><edge from-layer="355" from-port="0" to-layer="357" to-port="1" /><edge from-layer="357" from-port="0" to-layer="358" to-port="0" /><edge from-layer="354" from-port="0" to-layer="360" to-port="0" /><edge from-layer="360" from-port="0" to-layer="361" to-port="0" /><edge from-layer="359" from-port="0" to-layer="361" to-port="1" /><edge from-layer="361" from-port="0" to-layer="362" to-port="0" /><edge from-layer="362" from-port="0" to-layer="363" to-port="0" /><edge from-layer="363" from-port="0" to-layer="364" to-port="0" /><edge from-layer="354" from-port="0" to-layer="366" to-port="0" /><edge from-layer="366" from-port="0" to-layer="367" to-port="0" /><edge from-layer="365" from-port="0" to-layer="367" to-port="1" /><edge from-layer="367" from-port="0" to-layer="368" to-port="0" /><edge from-layer="368" from-port="0" to-layer="369" to-port="0" /><edge from-layer="358" from-port="0" to-layer="370" to-port="0" /><edge from-layer="370" from-port="0" to-layer="371" to-port="0" /><edge from-layer="364" from-port="0" to-layer="372" to-port="0" /><edge from-layer="371" from-port="0" to-layer="373" to-port="0" /><edge from-layer="372" from-port="0" to-layer="373" to-port="1" /><edge from-layer="373" from-port="0" to-layer="374" to-port="0" /><edge from-layer="374" from-port="0" to-layer="375" to-port="0" /><edge from-layer="375" from-port="0" to-layer="376" to-port="0" /><edge from-layer="376" from-port="0" to-layer="377" to-port="0" /><edge from-layer="377" from-port="0" to-layer="378" to-port="0" /><edge from-layer="369" from-port="0" to-layer="378" to-port="1" /><edge from-layer="378" from-port="0" to-layer="379" to-port="0" /><edge from-layer="379" from-port="0" to-layer="380" to-port="0" /><edge from-layer="380" from-port="0" to-layer="381" to-port="0" /><edge from-layer="381" from-port="0" to-layer="382" to-port="0" /><edge from-layer="382" from-port="0" to-layer="384" to-port="0" /><edge from-layer="383" from-port="0" to-layer="384" to-port="1" /><edge from-layer="384" from-port="0" to-layer="385" to-port="0" /><edge from-layer="385" from-port="0" to-layer="386" to-port="0" /><edge from-layer="354" from-port="0" to-layer="386" to-port="1" /><edge from-layer="386" from-port="0" to-layer="387" to-port="0" /><edge from-layer="387" from-port="0" to-layer="389" to-port="0" /><edge from-layer="389" from-port="0" to-layer="390" to-port="0" /><edge from-layer="388" from-port="0" to-layer="390" to-port="1" /><edge from-layer="390" from-port="0" to-layer="391" to-port="0" /><edge from-layer="391" from-port="0" to-layer="392" to-port="0" /><edge from-layer="392" from-port="0" to-layer="394" to-port="0" /><edge from-layer="393" from-port="0" to-layer="394" to-port="1" /><edge from-layer="394" from-port="0" to-layer="395" to-port="0" /><edge from-layer="395" from-port="0" to-layer="396" to-port="0" /><edge from-layer="387" from-port="0" to-layer="396" to-port="1" /><edge from-layer="396" from-port="0" to-layer="397" to-port="0" /><edge from-layer="397" from-port="0" to-layer="399" to-port="0" /><edge from-layer="399" from-port="0" to-layer="400" to-port="0" /><edge from-layer="398" from-port="0" to-layer="400" to-port="1" /><edge from-layer="400" from-port="0" to-layer="401" to-port="0" /><edge from-layer="397" from-port="0" to-layer="403" to-port="0" /><edge from-layer="403" from-port="0" to-layer="404" to-port="0" /><edge from-layer="402" from-port="0" to-layer="404" to-port="1" /><edge from-layer="404" from-port="0" to-layer="405" to-port="0" /><edge from-layer="405" from-port="0" to-layer="406" to-port="0" /><edge from-layer="406" from-port="0" to-layer="407" to-port="0" /><edge from-layer="397" from-port="0" to-layer="409" to-port="0" /><edge from-layer="409" from-port="0" to-layer="410" to-port="0" /><edge from-layer="408" from-port="0" to-layer="410" to-port="1" /><edge from-layer="410" from-port="0" to-layer="411" to-port="0" /><edge from-layer="411" from-port="0" to-layer="412" to-port="0" /><edge from-layer="401" from-port="0" to-layer="413" to-port="0" /><edge from-layer="413" from-port="0" to-layer="414" to-port="0" /><edge from-layer="407" from-port="0" to-layer="415" to-port="0" /><edge from-layer="414" from-port="0" to-layer="416" to-port="0" /><edge from-layer="415" from-port="0" to-layer="416" to-port="1" /><edge from-layer="416" from-port="0" to-layer="417" to-port="0" /><edge from-layer="417" from-port="0" to-layer="418" to-port="0" /><edge from-layer="418" from-port="0" to-layer="419" to-port="0" /><edge from-layer="419" from-port="0" to-layer="420" to-port="0" /><edge from-layer="420" from-port="0" to-layer="421" to-port="0" /><edge from-layer="412" from-port="0" to-layer="421" to-port="1" /><edge from-layer="421" from-port="0" to-layer="422" to-port="0" /><edge from-layer="422" from-port="0" to-layer="423" to-port="0" /><edge from-layer="423" from-port="0" to-layer="424" to-port="0" /><edge from-layer="424" from-port="0" to-layer="425" to-port="0" /><edge from-layer="425" from-port="0" to-layer="427" to-port="0" /><edge from-layer="426" from-port="0" to-layer="427" to-port="1" /><edge from-layer="427" from-port="0" to-layer="428" to-port="0" /><edge from-layer="428" from-port="0" to-layer="429" to-port="0" /><edge from-layer="397" from-port="0" to-layer="429" to-port="1" /><edge from-layer="429" from-port="0" to-layer="430" to-port="0" /><edge from-layer="430" from-port="0" to-layer="432" to-port="0" /><edge from-layer="432" from-port="0" to-layer="433" to-port="0" /><edge from-layer="431" from-port="0" to-layer="433" to-port="1" /><edge from-layer="433" from-port="0" to-layer="434" to-port="0" /><edge from-layer="434" from-port="0" to-layer="435" to-port="0" /><edge from-layer="435" from-port="0" to-layer="437" to-port="0" /><edge from-layer="436" from-port="0" to-layer="437" to-port="1" /><edge from-layer="437" from-port="0" to-layer="438" to-port="0" /><edge from-layer="438" from-port="0" to-layer="439" to-port="0" /><edge from-layer="430" from-port="0" to-layer="439" to-port="1" /><edge from-layer="439" from-port="0" to-layer="440" to-port="0" /><edge from-layer="440" from-port="0" to-layer="442" to-port="0" /><edge from-layer="442" from-port="0" to-layer="443" to-port="0" /><edge from-layer="441" from-port="0" to-layer="443" to-port="1" /><edge from-layer="443" from-port="0" to-layer="444" to-port="0" /><edge from-layer="440" from-port="0" to-layer="446" to-port="0" /><edge from-layer="446" from-port="0" to-layer="447" to-port="0" /><edge from-layer="445" from-port="0" to-layer="447" to-port="1" /><edge from-layer="447" from-port="0" to-layer="448" to-port="0" /><edge from-layer="448" from-port="0" to-layer="449" to-port="0" /><edge from-layer="449" from-port="0" to-layer="450" to-port="0" /><edge from-layer="440" from-port="0" to-layer="452" to-port="0" /><edge from-layer="452" from-port="0" to-layer="453" to-port="0" /><edge from-layer="451" from-port="0" to-layer="453" to-port="1" /><edge from-layer="453" from-port="0" to-layer="454" to-port="0" /><edge from-layer="454" from-port="0" to-layer="455" to-port="0" /><edge from-layer="444" from-port="0" to-layer="456" to-port="0" /><edge from-layer="456" from-port="0" to-layer="457" to-port="0" /><edge from-layer="450" from-port="0" to-layer="458" to-port="0" /><edge from-layer="457" from-port="0" to-layer="459" to-port="0" /><edge from-layer="458" from-port="0" to-layer="459" to-port="1" /><edge from-layer="459" from-port="0" to-layer="460" to-port="0" /><edge from-layer="460" from-port="0" to-layer="461" to-port="0" /><edge from-layer="461" from-port="0" to-layer="462" to-port="0" /><edge from-layer="462" from-port="0" to-layer="463" to-port="0" /><edge from-layer="463" from-port="0" to-layer="464" to-port="0" /><edge from-layer="455" from-port="0" to-layer="464" to-port="1" /><edge from-layer="464" from-port="0" to-layer="465" to-port="0" /><edge from-layer="465" from-port="0" to-layer="466" to-port="0" /><edge from-layer="466" from-port="0" to-layer="467" to-port="0" /><edge from-layer="467" from-port="0" to-layer="468" to-port="0" /><edge from-layer="468" from-port="0" to-layer="470" to-port="0" /><edge from-layer="469" from-port="0" to-layer="470" to-port="1" /><edge from-layer="470" from-port="0" to-layer="471" to-port="0" /><edge from-layer="471" from-port="0" to-layer="472" to-port="0" /><edge from-layer="440" from-port="0" to-layer="472" to-port="1" /><edge from-layer="472" from-port="0" to-layer="473" to-port="0" /><edge from-layer="473" from-port="0" to-layer="475" to-port="0" /><edge from-layer="475" from-port="0" to-layer="476" to-port="0" /><edge from-layer="474" from-port="0" to-layer="476" to-port="1" /><edge from-layer="476" from-port="0" to-layer="477" to-port="0" /><edge from-layer="477" from-port="0" to-layer="478" to-port="0" /><edge from-layer="478" from-port="0" to-layer="480" to-port="0" /><edge from-layer="479" from-port="0" to-layer="480" to-port="1" /><edge from-layer="480" from-port="0" to-layer="481" to-port="0" /><edge from-layer="481" from-port="0" to-layer="482" to-port="0" /><edge from-layer="473" from-port="0" to-layer="482" to-port="1" /><edge from-layer="482" from-port="0" to-layer="483" to-port="0" /><edge from-layer="483" from-port="0" to-layer="485" to-port="0" /><edge from-layer="485" from-port="0" to-layer="486" to-port="0" /><edge from-layer="484" from-port="0" to-layer="486" to-port="1" /><edge from-layer="486" from-port="0" to-layer="487" to-port="0" /><edge from-layer="483" from-port="0" to-layer="489" to-port="0" /><edge from-layer="489" from-port="0" to-layer="490" to-port="0" /><edge from-layer="488" from-port="0" to-layer="490" to-port="1" /><edge from-layer="490" from-port="0" to-layer="491" to-port="0" /><edge from-layer="491" from-port="0" to-layer="492" to-port="0" /><edge from-layer="492" from-port="0" to-layer="493" to-port="0" /><edge from-layer="483" from-port="0" to-layer="495" to-port="0" /><edge from-layer="495" from-port="0" to-layer="496" to-port="0" /><edge from-layer="494" from-port="0" to-layer="496" to-port="1" /><edge from-layer="496" from-port="0" to-layer="497" to-port="0" /><edge from-layer="497" from-port="0" to-layer="498" to-port="0" /><edge from-layer="487" from-port="0" to-layer="499" to-port="0" /><edge from-layer="499" from-port="0" to-layer="500" to-port="0" /><edge from-layer="493" from-port="0" to-layer="501" to-port="0" /><edge from-layer="500" from-port="0" to-layer="502" to-port="0" /><edge from-layer="501" from-port="0" to-layer="502" to-port="1" /><edge from-layer="502" from-port="0" to-layer="503" to-port="0" /><edge from-layer="503" from-port="0" to-layer="504" to-port="0" /><edge from-layer="504" from-port="0" to-layer="505" to-port="0" /><edge from-layer="505" from-port="0" to-layer="506" to-port="0" /><edge from-layer="506" from-port="0" to-layer="507" to-port="0" /><edge from-layer="498" from-port="0" to-layer="507" to-port="1" /><edge from-layer="507" from-port="0" to-layer="508" to-port="0" /><edge from-layer="508" from-port="0" to-layer="509" to-port="0" /><edge from-layer="509" from-port="0" to-layer="510" to-port="0" /><edge from-layer="510" from-port="0" to-layer="511" to-port="0" /><edge from-layer="511" from-port="0" to-layer="513" to-port="0" /><edge from-layer="512" from-port="0" to-layer="513" to-port="1" /><edge from-layer="513" from-port="0" to-layer="514" to-port="0" /><edge from-layer="514" from-port="0" to-layer="515" to-port="0" /><edge from-layer="483" from-port="0" to-layer="515" to-port="1" /><edge from-layer="515" from-port="0" to-layer="516" to-port="0" /><edge from-layer="516" from-port="0" to-layer="518" to-port="0" /><edge from-layer="518" from-port="0" to-layer="519" to-port="0" /><edge from-layer="517" from-port="0" to-layer="519" to-port="1" /><edge from-layer="519" from-port="0" to-layer="520" to-port="0" /><edge from-layer="520" from-port="0" to-layer="521" to-port="0" /><edge from-layer="521" from-port="0" to-layer="523" to-port="0" /><edge from-layer="522" from-port="0" to-layer="523" to-port="1" /><edge from-layer="523" from-port="0" to-layer="524" to-port="0" /><edge from-layer="524" from-port="0" to-layer="525" to-port="0" /><edge from-layer="516" from-port="0" to-layer="525" to-port="1" /><edge from-layer="525" from-port="0" to-layer="526" to-port="0" /><edge from-layer="526" from-port="0" to-layer="527" to-port="0" /><edge from-layer="527" from-port="0" to-layer="528" to-port="0" /><edge from-layer="528" from-port="0" to-layer="530" to-port="0" /><edge from-layer="529" from-port="0" to-layer="530" to-port="1" /><edge from-layer="530" from-port="0" to-layer="531" to-port="0" /><edge from-layer="531" from-port="0" to-layer="532" to-port="0" /><edge from-layer="532" from-port="0" to-layer="533" to-port="0" /><edge from-layer="533" from-port="0" to-layer="534" to-port="0" /><edge from-layer="534" from-port="0" to-layer="536" to-port="0" /><edge from-layer="535" from-port="0" to-layer="536" to-port="1" /><edge from-layer="536" from-port="0" to-layer="537" to-port="0" /></edges></net>